…
[WARNING] Augmentation on GPU not available!
[INFO] Set the device (cpu)
args.use_human_training False
[INFO] Select a CIL method (er)
/disk1/mjlee/Online_CLOD/methods/er_baseline.py:82: FutureWarning: `torch.cuda.amp.GradScaler(args...)` is deprecated. Please use `torch.amp.GradScaler('cuda', args...)` instead.
  self.scaler = torch.cuda.amp.GradScaler()
/home/vision/anaconda3/envs/clod/lib/python3.10/site-packages/torch/amp/grad_scaler.py:132: UserWarning: torch.cuda.amp.GradScaler is enabled, but CUDA is not available.  Disabling.
  warnings.warn(
model
YOLO(
  (model): ModuleList(
    (0): Conv(
      (conv): Conv2d(3, 32, kernel_size=(3, 3), stride=(2, 2), padding=(1, 1), bias=False)
      (bn): BatchNorm2d(32, eps=0.001, momentum=0.03, affine=True, track_running_stats=True)
      (act): SiLU(inplace=True)
    )
    (1): Conv(
      (conv): Conv2d(32, 64, kernel_size=(3, 3), stride=(2, 2), padding=(1, 1), bias=False)
      (bn): BatchNorm2d(64, eps=0.001, momentum=0.03, affine=True, track_running_stats=True)
      (act): SiLU(inplace=True)
    )
    (2): RepNCSPELAN(
      (conv1): Conv(
        (conv): Conv2d(64, 128, kernel_size=(1, 1), stride=(1, 1), bias=False)
        (bn): BatchNorm2d(128, eps=0.001, momentum=0.03, affine=True, track_running_stats=True)
        (act): SiLU(inplace=True)
      )
      (conv2): Sequential(
        (0): RepNCSP(
          (conv1): Conv(
            (conv): Conv2d(64, 32, kernel_size=(1, 1), stride=(1, 1), bias=False)
            (bn): BatchNorm2d(32, eps=0.001, momentum=0.03, affine=True, track_running_stats=True)
            (act): SiLU(inplace=True)
          )
          (conv2): Conv(
            (conv): Conv2d(64, 32, kernel_size=(1, 1), stride=(1, 1), bias=False)
            (bn): BatchNorm2d(32, eps=0.001, momentum=0.03, affine=True, track_running_stats=True)
            (act): SiLU(inplace=True)
          )
          (conv3): Conv(
            (conv): Conv2d(64, 64, kernel_size=(1, 1), stride=(1, 1), bias=False)
            (bn): BatchNorm2d(64, eps=0.001, momentum=0.03, affine=True, track_running_stats=True)
            (act): SiLU(inplace=True)
          )
          (bottleneck): Sequential(
            (0): Bottleneck(
              (conv1): RepConv(
                (act): SiLU(inplace=True)
                (conv1): Conv(
                  (conv): Conv2d(32, 32, kernel_size=(3, 3), stride=(1, 1), padding=(1, 1), bias=False)
                  (bn): BatchNorm2d(32, eps=0.001, momentum=0.03, affine=True, track_running_stats=True)
                  (act): Identity()
                )
                (conv2): Conv(
                  (conv): Conv2d(32, 32, kernel_size=(1, 1), stride=(1, 1), bias=False)
                  (bn): BatchNorm2d(32, eps=0.001, momentum=0.03, affine=True, track_running_stats=True)
                  (act): Identity()
                )
              )
              (conv2): Conv(
                (conv): Conv2d(32, 32, kernel_size=(3, 3), stride=(1, 1), padding=(1, 1), bias=False)
                (bn): BatchNorm2d(32, eps=0.001, momentum=0.03, affine=True, track_running_stats=True)
                (act): SiLU(inplace=True)
              )
            )
          )
        )
        (1): Conv(
          (conv): Conv2d(64, 64, kernel_size=(3, 3), stride=(1, 1), padding=(1, 1), bias=False)
          (bn): BatchNorm2d(64, eps=0.001, momentum=0.03, affine=True, track_running_stats=True)
          (act): SiLU(inplace=True)
        )
      )
      (conv3): Sequential(
        (0): RepNCSP(
          (conv1): Conv(
            (conv): Conv2d(64, 32, kernel_size=(1, 1), stride=(1, 1), bias=False)
            (bn): BatchNorm2d(32, eps=0.001, momentum=0.03, affine=True, track_running_stats=True)
            (act): SiLU(inplace=True)
          )
          (conv2): Conv(
            (conv): Conv2d(64, 32, kernel_size=(1, 1), stride=(1, 1), bias=False)
            (bn): BatchNorm2d(32, eps=0.001, momentum=0.03, affine=True, track_running_stats=True)
            (act): SiLU(inplace=True)
          )
          (conv3): Conv(
            (conv): Conv2d(64, 64, kernel_size=(1, 1), stride=(1, 1), bias=False)
            (bn): BatchNorm2d(64, eps=0.001, momentum=0.03, affine=True, track_running_stats=True)
            (act): SiLU(inplace=True)
          )
          (bottleneck): Sequential(
            (0): Bottleneck(
              (conv1): RepConv(
                (act): SiLU(inplace=True)
                (conv1): Conv(
                  (conv): Conv2d(32, 32, kernel_size=(3, 3), stride=(1, 1), padding=(1, 1), bias=False)
                  (bn): BatchNorm2d(32, eps=0.001, momentum=0.03, affine=True, track_running_stats=True)
                  (act): Identity()
                )
                (conv2): Conv(
                  (conv): Conv2d(32, 32, kernel_size=(1, 1), stride=(1, 1), bias=False)
                  (bn): BatchNorm2d(32, eps=0.001, momentum=0.03, affine=True, track_running_stats=True)
                  (act): Identity()
                )
              )
              (conv2): Conv(
                (conv): Conv2d(32, 32, kernel_size=(3, 3), stride=(1, 1), padding=(1, 1), bias=False)
                (bn): BatchNorm2d(32, eps=0.001, momentum=0.03, affine=True, track_running_stats=True)
                (act): SiLU(inplace=True)
              )
            )
          )
        )
        (1): Conv(
          (conv): Conv2d(64, 64, kernel_size=(3, 3), stride=(1, 1), padding=(1, 1), bias=False)
          (bn): BatchNorm2d(64, eps=0.001, momentum=0.03, affine=True, track_running_stats=True)
          (act): SiLU(inplace=True)
        )
      )
      (conv4): Conv(
        (conv): Conv2d(256, 128, kernel_size=(1, 1), stride=(1, 1), bias=False)
        (bn): BatchNorm2d(128, eps=0.001, momentum=0.03, affine=True, track_running_stats=True)
        (act): SiLU(inplace=True)
      )
    )
    (3): AConv(
      (avg_pool): Pool(
        (pool): AvgPool2d(kernel_size=2, stride=1, padding=(0, 0))
      )
      (conv): Conv(
        (conv): Conv2d(128, 240, kernel_size=(3, 3), stride=(2, 2), padding=(1, 1), bias=False)
        (bn): BatchNorm2d(240, eps=0.001, momentum=0.03, affine=True, track_running_stats=True)
        (act): SiLU(inplace=True)
      )
    )
    (4): RepNCSPELAN(
      (conv1): Conv(
        (conv): Conv2d(240, 240, kernel_size=(1, 1), stride=(1, 1), bias=False)
        (bn): BatchNorm2d(240, eps=0.001, momentum=0.03, affine=True, track_running_stats=True)
        (act): SiLU(inplace=True)
      )
      (conv2): Sequential(
        (0): RepNCSP(
          (conv1): Conv(
            (conv): Conv2d(120, 60, kernel_size=(1, 1), stride=(1, 1), bias=False)
            (bn): BatchNorm2d(60, eps=0.001, momentum=0.03, affine=True, track_running_stats=True)
            (act): SiLU(inplace=True)
          )
          (conv2): Conv(
            (conv): Conv2d(120, 60, kernel_size=(1, 1), stride=(1, 1), bias=False)
            (bn): BatchNorm2d(60, eps=0.001, momentum=0.03, affine=True, track_running_stats=True)
            (act): SiLU(inplace=True)
          )
          (conv3): Conv(
            (conv): Conv2d(120, 120, kernel_size=(1, 1), stride=(1, 1), bias=False)
            (bn): BatchNorm2d(120, eps=0.001, momentum=0.03, affine=True, track_running_stats=True)
            (act): SiLU(inplace=True)
          )
          (bottleneck): Sequential(
            (0): Bottleneck(
              (conv1): RepConv(
                (act): SiLU(inplace=True)
                (conv1): Conv(
                  (conv): Conv2d(60, 60, kernel_size=(3, 3), stride=(1, 1), padding=(1, 1), bias=False)
                  (bn): BatchNorm2d(60, eps=0.001, momentum=0.03, affine=True, track_running_stats=True)
                  (act): Identity()
                )
                (conv2): Conv(
                  (conv): Conv2d(60, 60, kernel_size=(1, 1), stride=(1, 1), bias=False)
                  (bn): BatchNorm2d(60, eps=0.001, momentum=0.03, affine=True, track_running_stats=True)
                  (act): Identity()
                )
              )
              (conv2): Conv(
                (conv): Conv2d(60, 60, kernel_size=(3, 3), stride=(1, 1), padding=(1, 1), bias=False)
                (bn): BatchNorm2d(60, eps=0.001, momentum=0.03, affine=True, track_running_stats=True)
                (act): SiLU(inplace=True)
              )
            )
          )
        )
        (1): Conv(
          (conv): Conv2d(120, 120, kernel_size=(3, 3), stride=(1, 1), padding=(1, 1), bias=False)
          (bn): BatchNorm2d(120, eps=0.001, momentum=0.03, affine=True, track_running_stats=True)
          (act): SiLU(inplace=True)
        )
      )
      (conv3): Sequential(
        (0): RepNCSP(
          (conv1): Conv(
            (conv): Conv2d(120, 60, kernel_size=(1, 1), stride=(1, 1), bias=False)
            (bn): BatchNorm2d(60, eps=0.001, momentum=0.03, affine=True, track_running_stats=True)
            (act): SiLU(inplace=True)
          )
          (conv2): Conv(
            (conv): Conv2d(120, 60, kernel_size=(1, 1), stride=(1, 1), bias=False)
            (bn): BatchNorm2d(60, eps=0.001, momentum=0.03, affine=True, track_running_stats=True)
            (act): SiLU(inplace=True)
          )
          (conv3): Conv(
            (conv): Conv2d(120, 120, kernel_size=(1, 1), stride=(1, 1), bias=False)
            (bn): BatchNorm2d(120, eps=0.001, momentum=0.03, affine=True, track_running_stats=True)
            (act): SiLU(inplace=True)
          )
          (bottleneck): Sequential(
            (0): Bottleneck(
              (conv1): RepConv(
                (act): SiLU(inplace=True)
                (conv1): Conv(
                  (conv): Conv2d(60, 60, kernel_size=(3, 3), stride=(1, 1), padding=(1, 1), bias=False)
                  (bn): BatchNorm2d(60, eps=0.001, momentum=0.03, affine=True, track_running_stats=True)
                  (act): Identity()
                )
                (conv2): Conv(
                  (conv): Conv2d(60, 60, kernel_size=(1, 1), stride=(1, 1), bias=False)
                  (bn): BatchNorm2d(60, eps=0.001, momentum=0.03, affine=True, track_running_stats=True)
                  (act): Identity()
                )
              )
              (conv2): Conv(
                (conv): Conv2d(60, 60, kernel_size=(3, 3), stride=(1, 1), padding=(1, 1), bias=False)
                (bn): BatchNorm2d(60, eps=0.001, momentum=0.03, affine=True, track_running_stats=True)
                (act): SiLU(inplace=True)
              )
            )
          )
        )
        (1): Conv(
          (conv): Conv2d(120, 120, kernel_size=(3, 3), stride=(1, 1), padding=(1, 1), bias=False)
          (bn): BatchNorm2d(120, eps=0.001, momentum=0.03, affine=True, track_running_stats=True)
          (act): SiLU(inplace=True)
        )
      )
      (conv4): Conv(
        (conv): Conv2d(480, 240, kernel_size=(1, 1), stride=(1, 1), bias=False)
        (bn): BatchNorm2d(240, eps=0.001, momentum=0.03, affine=True, track_running_stats=True)
        (act): SiLU(inplace=True)
      )
    )
    (5): AConv(
      (avg_pool): Pool(
        (pool): AvgPool2d(kernel_size=2, stride=1, padding=(0, 0))
      )
      (conv): Conv(
        (conv): Conv2d(240, 360, kernel_size=(3, 3), stride=(2, 2), padding=(1, 1), bias=False)
        (bn): BatchNorm2d(360, eps=0.001, momentum=0.03, affine=True, track_running_stats=True)
        (act): SiLU(inplace=True)
      )
    )
    (6): RepNCSPELAN(
      (conv1): Conv(
        (conv): Conv2d(360, 360, kernel_size=(1, 1), stride=(1, 1), bias=False)
        (bn): BatchNorm2d(360, eps=0.001, momentum=0.03, affine=True, track_running_stats=True)
        (act): SiLU(inplace=True)
      )
      (conv2): Sequential(
        (0): RepNCSP(
          (conv1): Conv(
            (conv): Conv2d(180, 90, kernel_size=(1, 1), stride=(1, 1), bias=False)
            (bn): BatchNorm2d(90, eps=0.001, momentum=0.03, affine=True, track_running_stats=True)
            (act): SiLU(inplace=True)
          )
          (conv2): Conv(
            (conv): Conv2d(180, 90, kernel_size=(1, 1), stride=(1, 1), bias=False)
            (bn): BatchNorm2d(90, eps=0.001, momentum=0.03, affine=True, track_running_stats=True)
            (act): SiLU(inplace=True)
          )
          (conv3): Conv(
            (conv): Conv2d(180, 180, kernel_size=(1, 1), stride=(1, 1), bias=False)
            (bn): BatchNorm2d(180, eps=0.001, momentum=0.03, affine=True, track_running_stats=True)
            (act): SiLU(inplace=True)
          )
          (bottleneck): Sequential(
            (0): Bottleneck(
              (conv1): RepConv(
                (act): SiLU(inplace=True)
                (conv1): Conv(
                  (conv): Conv2d(90, 90, kernel_size=(3, 3), stride=(1, 1), padding=(1, 1), bias=False)
                  (bn): BatchNorm2d(90, eps=0.001, momentum=0.03, affine=True, track_running_stats=True)
                  (act): Identity()
                )
                (conv2): Conv(
                  (conv): Conv2d(90, 90, kernel_size=(1, 1), stride=(1, 1), bias=False)
                  (bn): BatchNorm2d(90, eps=0.001, momentum=0.03, affine=True, track_running_stats=True)
                  (act): Identity()
                )
              )
              (conv2): Conv(
                (conv): Conv2d(90, 90, kernel_size=(3, 3), stride=(1, 1), padding=(1, 1), bias=False)
                (bn): BatchNorm2d(90, eps=0.001, momentum=0.03, affine=True, track_running_stats=True)
                (act): SiLU(inplace=True)
              )
            )
          )
        )
        (1): Conv(
          (conv): Conv2d(180, 180, kernel_size=(3, 3), stride=(1, 1), padding=(1, 1), bias=False)
          (bn): BatchNorm2d(180, eps=0.001, momentum=0.03, affine=True, track_running_stats=True)
          (act): SiLU(inplace=True)
        )
      )
      (conv3): Sequential(
        (0): RepNCSP(
          (conv1): Conv(
            (conv): Conv2d(180, 90, kernel_size=(1, 1), stride=(1, 1), bias=False)
            (bn): BatchNorm2d(90, eps=0.001, momentum=0.03, affine=True, track_running_stats=True)
            (act): SiLU(inplace=True)
          )
          (conv2): Conv(
            (conv): Conv2d(180, 90, kernel_size=(1, 1), stride=(1, 1), bias=False)
            (bn): BatchNorm2d(90, eps=0.001, momentum=0.03, affine=True, track_running_stats=True)
            (act): SiLU(inplace=True)
          )
          (conv3): Conv(
            (conv): Conv2d(180, 180, kernel_size=(1, 1), stride=(1, 1), bias=False)
            (bn): BatchNorm2d(180, eps=0.001, momentum=0.03, affine=True, track_running_stats=True)
            (act): SiLU(inplace=True)
          )
          (bottleneck): Sequential(
            (0): Bottleneck(
              (conv1): RepConv(
                (act): SiLU(inplace=True)
                (conv1): Conv(
                  (conv): Conv2d(90, 90, kernel_size=(3, 3), stride=(1, 1), padding=(1, 1), bias=False)
                  (bn): BatchNorm2d(90, eps=0.001, momentum=0.03, affine=True, track_running_stats=True)
                  (act): Identity()
                )
                (conv2): Conv(
                  (conv): Conv2d(90, 90, kernel_size=(1, 1), stride=(1, 1), bias=False)
                  (bn): BatchNorm2d(90, eps=0.001, momentum=0.03, affine=True, track_running_stats=True)
                  (act): Identity()
                )
              )
              (conv2): Conv(
                (conv): Conv2d(90, 90, kernel_size=(3, 3), stride=(1, 1), padding=(1, 1), bias=False)
                (bn): BatchNorm2d(90, eps=0.001, momentum=0.03, affine=True, track_running_stats=True)
                (act): SiLU(inplace=True)
              )
            )
          )
        )
        (1): Conv(
          (conv): Conv2d(180, 180, kernel_size=(3, 3), stride=(1, 1), padding=(1, 1), bias=False)
          (bn): BatchNorm2d(180, eps=0.001, momentum=0.03, affine=True, track_running_stats=True)
          (act): SiLU(inplace=True)
        )
      )
      (conv4): Conv(
        (conv): Conv2d(720, 360, kernel_size=(1, 1), stride=(1, 1), bias=False)
        (bn): BatchNorm2d(360, eps=0.001, momentum=0.03, affine=True, track_running_stats=True)
        (act): SiLU(inplace=True)
      )
    )
    (7): AConv(
      (avg_pool): Pool(
        (pool): AvgPool2d(kernel_size=2, stride=1, padding=(0, 0))
      )
      (conv): Conv(
        (conv): Conv2d(360, 480, kernel_size=(3, 3), stride=(2, 2), padding=(1, 1), bias=False)
        (bn): BatchNorm2d(480, eps=0.001, momentum=0.03, affine=True, track_running_stats=True)
        (act): SiLU(inplace=True)
      )
    )
    (8): RepNCSPELAN(
      (conv1): Conv(
        (conv): Conv2d(480, 480, kernel_size=(1, 1), stride=(1, 1), bias=False)
        (bn): BatchNorm2d(480, eps=0.001, momentum=0.03, affine=True, track_running_stats=True)
        (act): SiLU(inplace=True)
      )
      (conv2): Sequential(
        (0): RepNCSP(
          (conv1): Conv(
            (conv): Conv2d(240, 120, kernel_size=(1, 1), stride=(1, 1), bias=False)
            (bn): BatchNorm2d(120, eps=0.001, momentum=0.03, affine=True, track_running_stats=True)
            (act): SiLU(inplace=True)
          )
          (conv2): Conv(
            (conv): Conv2d(240, 120, kernel_size=(1, 1), stride=(1, 1), bias=False)
            (bn): BatchNorm2d(120, eps=0.001, momentum=0.03, affine=True, track_running_stats=True)
            (act): SiLU(inplace=True)
          )
          (conv3): Conv(
            (conv): Conv2d(240, 240, kernel_size=(1, 1), stride=(1, 1), bias=False)
            (bn): BatchNorm2d(240, eps=0.001, momentum=0.03, affine=True, track_running_stats=True)
            (act): SiLU(inplace=True)
          )
          (bottleneck): Sequential(
            (0): Bottleneck(
              (conv1): RepConv(
                (act): SiLU(inplace=True)
                (conv1): Conv(
                  (conv): Conv2d(120, 120, kernel_size=(3, 3), stride=(1, 1), padding=(1, 1), bias=False)
                  (bn): BatchNorm2d(120, eps=0.001, momentum=0.03, affine=True, track_running_stats=True)
                  (act): Identity()
                )
                (conv2): Conv(
                  (conv): Conv2d(120, 120, kernel_size=(1, 1), stride=(1, 1), bias=False)
                  (bn): BatchNorm2d(120, eps=0.001, momentum=0.03, affine=True, track_running_stats=True)
                  (act): Identity()
                )
              )
              (conv2): Conv(
                (conv): Conv2d(120, 120, kernel_size=(3, 3), stride=(1, 1), padding=(1, 1), bias=False)
                (bn): BatchNorm2d(120, eps=0.001, momentum=0.03, affine=True, track_running_stats=True)
                (act): SiLU(inplace=True)
              )
            )
          )
        )
        (1): Conv(
          (conv): Conv2d(240, 240, kernel_size=(3, 3), stride=(1, 1), padding=(1, 1), bias=False)
          (bn): BatchNorm2d(240, eps=0.001, momentum=0.03, affine=True, track_running_stats=True)
          (act): SiLU(inplace=True)
        )
      )
      (conv3): Sequential(
        (0): RepNCSP(
          (conv1): Conv(
            (conv): Conv2d(240, 120, kernel_size=(1, 1), stride=(1, 1), bias=False)
            (bn): BatchNorm2d(120, eps=0.001, momentum=0.03, affine=True, track_running_stats=True)
            (act): SiLU(inplace=True)
          )
          (conv2): Conv(
            (conv): Conv2d(240, 120, kernel_size=(1, 1), stride=(1, 1), bias=False)
            (bn): BatchNorm2d(120, eps=0.001, momentum=0.03, affine=True, track_running_stats=True)
            (act): SiLU(inplace=True)
          )
          (conv3): Conv(
            (conv): Conv2d(240, 240, kernel_size=(1, 1), stride=(1, 1), bias=False)
            (bn): BatchNorm2d(240, eps=0.001, momentum=0.03, affine=True, track_running_stats=True)
            (act): SiLU(inplace=True)
          )
          (bottleneck): Sequential(
            (0): Bottleneck(
              (conv1): RepConv(
                (act): SiLU(inplace=True)
                (conv1): Conv(
                  (conv): Conv2d(120, 120, kernel_size=(3, 3), stride=(1, 1), padding=(1, 1), bias=False)
                  (bn): BatchNorm2d(120, eps=0.001, momentum=0.03, affine=True, track_running_stats=True)
                  (act): Identity()
                )
                (conv2): Conv(
                  (conv): Conv2d(120, 120, kernel_size=(1, 1), stride=(1, 1), bias=False)
                  (bn): BatchNorm2d(120, eps=0.001, momentum=0.03, affine=True, track_running_stats=True)
                  (act): Identity()
                )
              )
              (conv2): Conv(
                (conv): Conv2d(120, 120, kernel_size=(3, 3), stride=(1, 1), padding=(1, 1), bias=False)
                (bn): BatchNorm2d(120, eps=0.001, momentum=0.03, affine=True, track_running_stats=True)
                (act): SiLU(inplace=True)
              )
            )
          )
        )
        (1): Conv(
          (conv): Conv2d(240, 240, kernel_size=(3, 3), stride=(1, 1), padding=(1, 1), bias=False)
          (bn): BatchNorm2d(240, eps=0.001, momentum=0.03, affine=True, track_running_stats=True)
          (act): SiLU(inplace=True)
        )
      )
      (conv4): Conv(
        (conv): Conv2d(960, 480, kernel_size=(1, 1), stride=(1, 1), bias=False)
        (bn): BatchNorm2d(480, eps=0.001, momentum=0.03, affine=True, track_running_stats=True)
        (act): SiLU(inplace=True)
      )
    )
    (9): SPPELAN(
      (conv1): Conv(
        (conv): Conv2d(480, 240, kernel_size=(1, 1), stride=(1, 1), bias=False)
        (bn): BatchNorm2d(240, eps=0.001, momentum=0.03, affine=True, track_running_stats=True)
        (act): SiLU(inplace=True)
      )
      (pools): ModuleList(
        (0-2): 3 x Pool(
          (pool): MaxPool2d(kernel_size=5, stride=1, padding=(2, 2), dilation=1, ceil_mode=False)
        )
      )
      (conv5): Conv(
        (conv): Conv2d(960, 480, kernel_size=(1, 1), stride=(1, 1), bias=False)
        (bn): BatchNorm2d(480, eps=0.001, momentum=0.03, affine=True, track_running_stats=True)
        (act): SiLU(inplace=True)
      )
    )
    (10): UpSample(
      (UpSample): Upsample(scale_factor=2.0, mode='nearest')
    )
    (11): Concat()
    (12): RepNCSPELAN(
      (conv1): Conv(
        (conv): Conv2d(840, 360, kernel_size=(1, 1), stride=(1, 1), bias=False)
        (bn): BatchNorm2d(360, eps=0.001, momentum=0.03, affine=True, track_running_stats=True)
        (act): SiLU(inplace=True)
      )
      (conv2): Sequential(
        (0): RepNCSP(
          (conv1): Conv(
            (conv): Conv2d(180, 90, kernel_size=(1, 1), stride=(1, 1), bias=False)
            (bn): BatchNorm2d(90, eps=0.001, momentum=0.03, affine=True, track_running_stats=True)
            (act): SiLU(inplace=True)
          )
          (conv2): Conv(
            (conv): Conv2d(180, 90, kernel_size=(1, 1), stride=(1, 1), bias=False)
            (bn): BatchNorm2d(90, eps=0.001, momentum=0.03, affine=True, track_running_stats=True)
            (act): SiLU(inplace=True)
          )
          (conv3): Conv(
            (conv): Conv2d(180, 180, kernel_size=(1, 1), stride=(1, 1), bias=False)
            (bn): BatchNorm2d(180, eps=0.001, momentum=0.03, affine=True, track_running_stats=True)
            (act): SiLU(inplace=True)
          )
          (bottleneck): Sequential(
            (0): Bottleneck(
              (conv1): RepConv(
                (act): SiLU(inplace=True)
                (conv1): Conv(
                  (conv): Conv2d(90, 90, kernel_size=(3, 3), stride=(1, 1), padding=(1, 1), bias=False)
                  (bn): BatchNorm2d(90, eps=0.001, momentum=0.03, affine=True, track_running_stats=True)
                  (act): Identity()
                )
                (conv2): Conv(
                  (conv): Conv2d(90, 90, kernel_size=(1, 1), stride=(1, 1), bias=False)
                  (bn): BatchNorm2d(90, eps=0.001, momentum=0.03, affine=True, track_running_stats=True)
                  (act): Identity()
                )
              )
              (conv2): Conv(
                (conv): Conv2d(90, 90, kernel_size=(3, 3), stride=(1, 1), padding=(1, 1), bias=False)
                (bn): BatchNorm2d(90, eps=0.001, momentum=0.03, affine=True, track_running_stats=True)
                (act): SiLU(inplace=True)
              )
            )
          )
        )
        (1): Conv(
          (conv): Conv2d(180, 180, kernel_size=(3, 3), stride=(1, 1), padding=(1, 1), bias=False)
          (bn): BatchNorm2d(180, eps=0.001, momentum=0.03, affine=True, track_running_stats=True)
          (act): SiLU(inplace=True)
        )
      )
      (conv3): Sequential(
        (0): RepNCSP(
          (conv1): Conv(
            (conv): Conv2d(180, 90, kernel_size=(1, 1), stride=(1, 1), bias=False)
            (bn): BatchNorm2d(90, eps=0.001, momentum=0.03, affine=True, track_running_stats=True)
            (act): SiLU(inplace=True)
          )
          (conv2): Conv(
            (conv): Conv2d(180, 90, kernel_size=(1, 1), stride=(1, 1), bias=False)
            (bn): BatchNorm2d(90, eps=0.001, momentum=0.03, affine=True, track_running_stats=True)
            (act): SiLU(inplace=True)
          )
          (conv3): Conv(
            (conv): Conv2d(180, 180, kernel_size=(1, 1), stride=(1, 1), bias=False)
            (bn): BatchNorm2d(180, eps=0.001, momentum=0.03, affine=True, track_running_stats=True)
            (act): SiLU(inplace=True)
          )
          (bottleneck): Sequential(
            (0): Bottleneck(
              (conv1): RepConv(
                (act): SiLU(inplace=True)
                (conv1): Conv(
                  (conv): Conv2d(90, 90, kernel_size=(3, 3), stride=(1, 1), padding=(1, 1), bias=False)
                  (bn): BatchNorm2d(90, eps=0.001, momentum=0.03, affine=True, track_running_stats=True)
                  (act): Identity()
                )
                (conv2): Conv(
                  (conv): Conv2d(90, 90, kernel_size=(1, 1), stride=(1, 1), bias=False)
                  (bn): BatchNorm2d(90, eps=0.001, momentum=0.03, affine=True, track_running_stats=True)
                  (act): Identity()
                )
              )
              (conv2): Conv(
                (conv): Conv2d(90, 90, kernel_size=(3, 3), stride=(1, 1), padding=(1, 1), bias=False)
                (bn): BatchNorm2d(90, eps=0.001, momentum=0.03, affine=True, track_running_stats=True)
                (act): SiLU(inplace=True)
              )
            )
          )
        )
        (1): Conv(
          (conv): Conv2d(180, 180, kernel_size=(3, 3), stride=(1, 1), padding=(1, 1), bias=False)
          (bn): BatchNorm2d(180, eps=0.001, momentum=0.03, affine=True, track_running_stats=True)
          (act): SiLU(inplace=True)
        )
      )
      (conv4): Conv(
        (conv): Conv2d(720, 360, kernel_size=(1, 1), stride=(1, 1), bias=False)
        (bn): BatchNorm2d(360, eps=0.001, momentum=0.03, affine=True, track_running_stats=True)
        (act): SiLU(inplace=True)
      )
    )
    (13): UpSample(
      (UpSample): Upsample(scale_factor=2.0, mode='nearest')
    )
    (14): Concat()
    (15): RepNCSPELAN(
      (conv1): Conv(
        (conv): Conv2d(600, 240, kernel_size=(1, 1), stride=(1, 1), bias=False)
        (bn): BatchNorm2d(240, eps=0.001, momentum=0.03, affine=True, track_running_stats=True)
        (act): SiLU(inplace=True)
      )
      (conv2): Sequential(
        (0): RepNCSP(
          (conv1): Conv(
            (conv): Conv2d(120, 60, kernel_size=(1, 1), stride=(1, 1), bias=False)
            (bn): BatchNorm2d(60, eps=0.001, momentum=0.03, affine=True, track_running_stats=True)
            (act): SiLU(inplace=True)
          )
          (conv2): Conv(
            (conv): Conv2d(120, 60, kernel_size=(1, 1), stride=(1, 1), bias=False)
            (bn): BatchNorm2d(60, eps=0.001, momentum=0.03, affine=True, track_running_stats=True)
            (act): SiLU(inplace=True)
          )
          (conv3): Conv(
            (conv): Conv2d(120, 120, kernel_size=(1, 1), stride=(1, 1), bias=False)
            (bn): BatchNorm2d(120, eps=0.001, momentum=0.03, affine=True, track_running_stats=True)
            (act): SiLU(inplace=True)
          )
          (bottleneck): Sequential(
            (0): Bottleneck(
              (conv1): RepConv(
                (act): SiLU(inplace=True)
                (conv1): Conv(
                  (conv): Conv2d(60, 60, kernel_size=(3, 3), stride=(1, 1), padding=(1, 1), bias=False)
                  (bn): BatchNorm2d(60, eps=0.001, momentum=0.03, affine=True, track_running_stats=True)
                  (act): Identity()
                )
                (conv2): Conv(
                  (conv): Conv2d(60, 60, kernel_size=(1, 1), stride=(1, 1), bias=False)
                  (bn): BatchNorm2d(60, eps=0.001, momentum=0.03, affine=True, track_running_stats=True)
                  (act): Identity()
                )
              )
              (conv2): Conv(
                (conv): Conv2d(60, 60, kernel_size=(3, 3), stride=(1, 1), padding=(1, 1), bias=False)
                (bn): BatchNorm2d(60, eps=0.001, momentum=0.03, affine=True, track_running_stats=True)
                (act): SiLU(inplace=True)
              )
            )
          )
        )
        (1): Conv(
          (conv): Conv2d(120, 120, kernel_size=(3, 3), stride=(1, 1), padding=(1, 1), bias=False)
          (bn): BatchNorm2d(120, eps=0.001, momentum=0.03, affine=True, track_running_stats=True)
          (act): SiLU(inplace=True)
        )
      )
      (conv3): Sequential(
        (0): RepNCSP(
          (conv1): Conv(
            (conv): Conv2d(120, 60, kernel_size=(1, 1), stride=(1, 1), bias=False)
            (bn): BatchNorm2d(60, eps=0.001, momentum=0.03, affine=True, track_running_stats=True)
            (act): SiLU(inplace=True)
          )
          (conv2): Conv(
            (conv): Conv2d(120, 60, kernel_size=(1, 1), stride=(1, 1), bias=False)
            (bn): BatchNorm2d(60, eps=0.001, momentum=0.03, affine=True, track_running_stats=True)
            (act): SiLU(inplace=True)
          )
          (conv3): Conv(
            (conv): Conv2d(120, 120, kernel_size=(1, 1), stride=(1, 1), bias=False)
            (bn): BatchNorm2d(120, eps=0.001, momentum=0.03, affine=True, track_running_stats=True)
            (act): SiLU(inplace=True)
          )
          (bottleneck): Sequential(
            (0): Bottleneck(
              (conv1): RepConv(
                (act): SiLU(inplace=True)
                (conv1): Conv(
                  (conv): Conv2d(60, 60, kernel_size=(3, 3), stride=(1, 1), padding=(1, 1), bias=False)
                  (bn): BatchNorm2d(60, eps=0.001, momentum=0.03, affine=True, track_running_stats=True)
                  (act): Identity()
                )
                (conv2): Conv(
                  (conv): Conv2d(60, 60, kernel_size=(1, 1), stride=(1, 1), bias=False)
                  (bn): BatchNorm2d(60, eps=0.001, momentum=0.03, affine=True, track_running_stats=True)
                  (act): Identity()
                )
              )
              (conv2): Conv(
                (conv): Conv2d(60, 60, kernel_size=(3, 3), stride=(1, 1), padding=(1, 1), bias=False)
                (bn): BatchNorm2d(60, eps=0.001, momentum=0.03, affine=True, track_running_stats=True)
                (act): SiLU(inplace=True)
              )
            )
          )
        )
        (1): Conv(
          (conv): Conv2d(120, 120, kernel_size=(3, 3), stride=(1, 1), padding=(1, 1), bias=False)
          (bn): BatchNorm2d(120, eps=0.001, momentum=0.03, affine=True, track_running_stats=True)
          (act): SiLU(inplace=True)
        )
      )
      (conv4): Conv(
        (conv): Conv2d(480, 240, kernel_size=(1, 1), stride=(1, 1), bias=False)
        (bn): BatchNorm2d(240, eps=0.001, momentum=0.03, affine=True, track_running_stats=True)
        (act): SiLU(inplace=True)
      )
    )
    (16): AConv(
      (avg_pool): Pool(
        (pool): AvgPool2d(kernel_size=2, stride=1, padding=(0, 0))
      )
      (conv): Conv(
        (conv): Conv2d(240, 184, kernel_size=(3, 3), stride=(2, 2), padding=(1, 1), bias=False)
        (bn): BatchNorm2d(184, eps=0.001, momentum=0.03, affine=True, track_running_stats=True)
        (act): SiLU(inplace=True)
      )
    )
    (17): Concat()
    (18): RepNCSPELAN(
      (conv1): Conv(
        (conv): Conv2d(544, 360, kernel_size=(1, 1), stride=(1, 1), bias=False)
        (bn): BatchNorm2d(360, eps=0.001, momentum=0.03, affine=True, track_running_stats=True)
        (act): SiLU(inplace=True)
      )
      (conv2): Sequential(
        (0): RepNCSP(
          (conv1): Conv(
            (conv): Conv2d(180, 90, kernel_size=(1, 1), stride=(1, 1), bias=False)
            (bn): BatchNorm2d(90, eps=0.001, momentum=0.03, affine=True, track_running_stats=True)
            (act): SiLU(inplace=True)
          )
          (conv2): Conv(
            (conv): Conv2d(180, 90, kernel_size=(1, 1), stride=(1, 1), bias=False)
            (bn): BatchNorm2d(90, eps=0.001, momentum=0.03, affine=True, track_running_stats=True)
            (act): SiLU(inplace=True)
          )
          (conv3): Conv(
            (conv): Conv2d(180, 180, kernel_size=(1, 1), stride=(1, 1), bias=False)
            (bn): BatchNorm2d(180, eps=0.001, momentum=0.03, affine=True, track_running_stats=True)
            (act): SiLU(inplace=True)
          )
          (bottleneck): Sequential(
            (0): Bottleneck(
              (conv1): RepConv(
                (act): SiLU(inplace=True)
                (conv1): Conv(
                  (conv): Conv2d(90, 90, kernel_size=(3, 3), stride=(1, 1), padding=(1, 1), bias=False)
                  (bn): BatchNorm2d(90, eps=0.001, momentum=0.03, affine=True, track_running_stats=True)
                  (act): Identity()
                )
                (conv2): Conv(
                  (conv): Conv2d(90, 90, kernel_size=(1, 1), stride=(1, 1), bias=False)
                  (bn): BatchNorm2d(90, eps=0.001, momentum=0.03, affine=True, track_running_stats=True)
                  (act): Identity()
                )
              )
              (conv2): Conv(
                (conv): Conv2d(90, 90, kernel_size=(3, 3), stride=(1, 1), padding=(1, 1), bias=False)
                (bn): BatchNorm2d(90, eps=0.001, momentum=0.03, affine=True, track_running_stats=True)
                (act): SiLU(inplace=True)
              )
            )
          )
        )
        (1): Conv(
          (conv): Conv2d(180, 180, kernel_size=(3, 3), stride=(1, 1), padding=(1, 1), bias=False)
          (bn): BatchNorm2d(180, eps=0.001, momentum=0.03, affine=True, track_running_stats=True)
          (act): SiLU(inplace=True)
        )
      )
      (conv3): Sequential(
        (0): RepNCSP(
          (conv1): Conv(
            (conv): Conv2d(180, 90, kernel_size=(1, 1), stride=(1, 1), bias=False)
            (bn): BatchNorm2d(90, eps=0.001, momentum=0.03, affine=True, track_running_stats=True)
            (act): SiLU(inplace=True)
          )
          (conv2): Conv(
            (conv): Conv2d(180, 90, kernel_size=(1, 1), stride=(1, 1), bias=False)
            (bn): BatchNorm2d(90, eps=0.001, momentum=0.03, affine=True, track_running_stats=True)
            (act): SiLU(inplace=True)
          )
          (conv3): Conv(
            (conv): Conv2d(180, 180, kernel_size=(1, 1), stride=(1, 1), bias=False)
            (bn): BatchNorm2d(180, eps=0.001, momentum=0.03, affine=True, track_running_stats=True)
            (act): SiLU(inplace=True)
          )
          (bottleneck): Sequential(
            (0): Bottleneck(
              (conv1): RepConv(
                (act): SiLU(inplace=True)
                (conv1): Conv(
                  (conv): Conv2d(90, 90, kernel_size=(3, 3), stride=(1, 1), padding=(1, 1), bias=False)
                  (bn): BatchNorm2d(90, eps=0.001, momentum=0.03, affine=True, track_running_stats=True)
                  (act): Identity()
                )
                (conv2): Conv(
                  (conv): Conv2d(90, 90, kernel_size=(1, 1), stride=(1, 1), bias=False)
                  (bn): BatchNorm2d(90, eps=0.001, momentum=0.03, affine=True, track_running_stats=True)
                  (act): Identity()
                )
              )
              (conv2): Conv(
                (conv): Conv2d(90, 90, kernel_size=(3, 3), stride=(1, 1), padding=(1, 1), bias=False)
                (bn): BatchNorm2d(90, eps=0.001, momentum=0.03, affine=True, track_running_stats=True)
                (act): SiLU(inplace=True)
              )
            )
          )
        )
        (1): Conv(
          (conv): Conv2d(180, 180, kernel_size=(3, 3), stride=(1, 1), padding=(1, 1), bias=False)
          (bn): BatchNorm2d(180, eps=0.001, momentum=0.03, affine=True, track_running_stats=True)
          (act): SiLU(inplace=True)
        )
      )
      (conv4): Conv(
        (conv): Conv2d(720, 360, kernel_size=(1, 1), stride=(1, 1), bias=False)
        (bn): BatchNorm2d(360, eps=0.001, momentum=0.03, affine=True, track_running_stats=True)
        (act): SiLU(inplace=True)
      )
    )
    (19): AConv(
      (avg_pool): Pool(
        (pool): AvgPool2d(kernel_size=2, stride=1, padding=(0, 0))
      )
      (conv): Conv(
        (conv): Conv2d(360, 240, kernel_size=(3, 3), stride=(2, 2), padding=(1, 1), bias=False)
        (bn): BatchNorm2d(240, eps=0.001, momentum=0.03, affine=True, track_running_stats=True)
        (act): SiLU(inplace=True)
      )
    )
    (20): Concat()
    (21): RepNCSPELAN(
      (conv1): Conv(
        (conv): Conv2d(720, 480, kernel_size=(1, 1), stride=(1, 1), bias=False)
        (bn): BatchNorm2d(480, eps=0.001, momentum=0.03, affine=True, track_running_stats=True)
        (act): SiLU(inplace=True)
      )
      (conv2): Sequential(
        (0): RepNCSP(
          (conv1): Conv(
            (conv): Conv2d(240, 120, kernel_size=(1, 1), stride=(1, 1), bias=False)
            (bn): BatchNorm2d(120, eps=0.001, momentum=0.03, affine=True, track_running_stats=True)
            (act): SiLU(inplace=True)
          )
          (conv2): Conv(
            (conv): Conv2d(240, 120, kernel_size=(1, 1), stride=(1, 1), bias=False)
            (bn): BatchNorm2d(120, eps=0.001, momentum=0.03, affine=True, track_running_stats=True)
            (act): SiLU(inplace=True)
          )
          (conv3): Conv(
            (conv): Conv2d(240, 240, kernel_size=(1, 1), stride=(1, 1), bias=False)
            (bn): BatchNorm2d(240, eps=0.001, momentum=0.03, affine=True, track_running_stats=True)
            (act): SiLU(inplace=True)
          )
          (bottleneck): Sequential(
            (0): Bottleneck(
              (conv1): RepConv(
                (act): SiLU(inplace=True)
                (conv1): Conv(
                  (conv): Conv2d(120, 120, kernel_size=(3, 3), stride=(1, 1), padding=(1, 1), bias=False)
                  (bn): BatchNorm2d(120, eps=0.001, momentum=0.03, affine=True, track_running_stats=True)
                  (act): Identity()
                )
                (conv2): Conv(
                  (conv): Conv2d(120, 120, kernel_size=(1, 1), stride=(1, 1), bias=False)
                  (bn): BatchNorm2d(120, eps=0.001, momentum=0.03, affine=True, track_running_stats=True)
                  (act): Identity()
                )
              )
              (conv2): Conv(
                (conv): Conv2d(120, 120, kernel_size=(3, 3), stride=(1, 1), padding=(1, 1), bias=False)
                (bn): BatchNorm2d(120, eps=0.001, momentum=0.03, affine=True, track_running_stats=True)
                (act): SiLU(inplace=True)
              )
            )
          )
        )
        (1): Conv(
          (conv): Conv2d(240, 240, kernel_size=(3, 3), stride=(1, 1), padding=(1, 1), bias=False)
          (bn): BatchNorm2d(240, eps=0.001, momentum=0.03, affine=True, track_running_stats=True)
          (act): SiLU(inplace=True)
        )
      )
      (conv3): Sequential(
        (0): RepNCSP(
          (conv1): Conv(
            (conv): Conv2d(240, 120, kernel_size=(1, 1), stride=(1, 1), bias=False)
            (bn): BatchNorm2d(120, eps=0.001, momentum=0.03, affine=True, track_running_stats=True)
            (act): SiLU(inplace=True)
          )
          (conv2): Conv(
            (conv): Conv2d(240, 120, kernel_size=(1, 1), stride=(1, 1), bias=False)
            (bn): BatchNorm2d(120, eps=0.001, momentum=0.03, affine=True, track_running_stats=True)
            (act): SiLU(inplace=True)
          )
          (conv3): Conv(
            (conv): Conv2d(240, 240, kernel_size=(1, 1), stride=(1, 1), bias=False)
            (bn): BatchNorm2d(240, eps=0.001, momentum=0.03, affine=True, track_running_stats=True)
            (act): SiLU(inplace=True)
          )
          (bottleneck): Sequential(
            (0): Bottleneck(
              (conv1): RepConv(
                (act): SiLU(inplace=True)
                (conv1): Conv(
                  (conv): Conv2d(120, 120, kernel_size=(3, 3), stride=(1, 1), padding=(1, 1), bias=False)
                  (bn): BatchNorm2d(120, eps=0.001, momentum=0.03, affine=True, track_running_stats=True)
                  (act): Identity()
                )
                (conv2): Conv(
                  (conv): Conv2d(120, 120, kernel_size=(1, 1), stride=(1, 1), bias=False)
                  (bn): BatchNorm2d(120, eps=0.001, momentum=0.03, affine=True, track_running_stats=True)
                  (act): Identity()
                )
              )
              (conv2): Conv(
                (conv): Conv2d(120, 120, kernel_size=(3, 3), stride=(1, 1), padding=(1, 1), bias=False)
                (bn): BatchNorm2d(120, eps=0.001, momentum=0.03, affine=True, track_running_stats=True)
                (act): SiLU(inplace=True)
              )
            )
          )
        )
        (1): Conv(
          (conv): Conv2d(240, 240, kernel_size=(3, 3), stride=(1, 1), padding=(1, 1), bias=False)
          (bn): BatchNorm2d(240, eps=0.001, momentum=0.03, affine=True, track_running_stats=True)
          (act): SiLU(inplace=True)
        )
      )
      (conv4): Conv(
        (conv): Conv2d(960, 480, kernel_size=(1, 1), stride=(1, 1), bias=False)
        (bn): BatchNorm2d(480, eps=0.001, momentum=0.03, affine=True, track_running_stats=True)
        (act): SiLU(inplace=True)
      )
    )
    (22): MultiheadDetection(
      (heads): ModuleList(
        (0): Detection(
          (anchor_conv): Sequential(
            (0): Conv(
              (conv): Conv2d(240, 64, kernel_size=(3, 3), stride=(1, 1), padding=(1, 1), bias=False)
              (bn): BatchNorm2d(64, eps=0.001, momentum=0.03, affine=True, track_running_stats=True)
              (act): SiLU(inplace=True)
            )
            (1): Conv(
              (conv): Conv2d(64, 64, kernel_size=(3, 3), stride=(1, 1), padding=(1, 1), groups=4, bias=False)
              (bn): BatchNorm2d(64, eps=0.001, momentum=0.03, affine=True, track_running_stats=True)
              (act): SiLU(inplace=True)
            )
            (2): Conv2d(64, 64, kernel_size=(1, 1), stride=(1, 1), groups=4)
          )
          (class_conv): Sequential(
            (0): Conv(
              (conv): Conv2d(240, 240, kernel_size=(3, 3), stride=(1, 1), padding=(1, 1), bias=False)
              (bn): BatchNorm2d(240, eps=0.001, momentum=0.03, affine=True, track_running_stats=True)
              (act): SiLU(inplace=True)
            )
            (1): Conv(
              (conv): Conv2d(240, 240, kernel_size=(3, 3), stride=(1, 1), padding=(1, 1), bias=False)
              (bn): BatchNorm2d(240, eps=0.001, momentum=0.03, affine=True, track_running_stats=True)
              (act): SiLU(inplace=True)
            )
            (2): Conv2d(240, 20, kernel_size=(1, 1), stride=(1, 1))
          )
          (anc2vec): Anchor2Vec(
            (anc2vec): Conv3d(16, 1, kernel_size=(1, 1, 1), stride=(1, 1, 1), bias=False)
          )
        )
        (1): Detection(
          (anchor_conv): Sequential(
            (0): Conv(
              (conv): Conv2d(360, 64, kernel_size=(3, 3), stride=(1, 1), padding=(1, 1), bias=False)
              (bn): BatchNorm2d(64, eps=0.001, momentum=0.03, affine=True, track_running_stats=True)
              (act): SiLU(inplace=True)
            )
            (1): Conv(
              (conv): Conv2d(64, 64, kernel_size=(3, 3), stride=(1, 1), padding=(1, 1), groups=4, bias=False)
              (bn): BatchNorm2d(64, eps=0.001, momentum=0.03, affine=True, track_running_stats=True)
              (act): SiLU(inplace=True)
            )
            (2): Conv2d(64, 64, kernel_size=(1, 1), stride=(1, 1), groups=4)
          )
          (class_conv): Sequential(
            (0): Conv(
              (conv): Conv2d(360, 240, kernel_size=(3, 3), stride=(1, 1), padding=(1, 1), bias=False)
              (bn): BatchNorm2d(240, eps=0.001, momentum=0.03, affine=True, track_running_stats=True)
              (act): SiLU(inplace=True)
            )
            (1): Conv(
              (conv): Conv2d(240, 240, kernel_size=(3, 3), stride=(1, 1), padding=(1, 1), bias=False)
              (bn): BatchNorm2d(240, eps=0.001, momentum=0.03, affine=True, track_running_stats=True)
              (act): SiLU(inplace=True)
            )
            (2): Conv2d(240, 20, kernel_size=(1, 1), stride=(1, 1))
          )
          (anc2vec): Anchor2Vec(
            (anc2vec): Conv3d(16, 1, kernel_size=(1, 1, 1), stride=(1, 1, 1), bias=False)
          )
        )
        (2): Detection(
          (anchor_conv): Sequential(
            (0): Conv(
              (conv): Conv2d(480, 64, kernel_size=(3, 3), stride=(1, 1), padding=(1, 1), bias=False)
              (bn): BatchNorm2d(64, eps=0.001, momentum=0.03, affine=True, track_running_stats=True)
              (act): SiLU(inplace=True)
            )
            (1): Conv(
              (conv): Conv2d(64, 64, kernel_size=(3, 3), stride=(1, 1), padding=(1, 1), groups=4, bias=False)
              (bn): BatchNorm2d(64, eps=0.001, momentum=0.03, affine=True, track_running_stats=True)
              (act): SiLU(inplace=True)
            )
            (2): Conv2d(64, 64, kernel_size=(1, 1), stride=(1, 1), groups=4)
          )
          (class_conv): Sequential(
            (0): Conv(
              (conv): Conv2d(480, 240, kernel_size=(3, 3), stride=(1, 1), padding=(1, 1), bias=False)
              (bn): BatchNorm2d(240, eps=0.001, momentum=0.03, affine=True, track_running_stats=True)
              (act): SiLU(inplace=True)
            )
            (1): Conv(
              (conv): Conv2d(240, 240, kernel_size=(3, 3), stride=(1, 1), padding=(1, 1), bias=False)
              (bn): BatchNorm2d(240, eps=0.001, momentum=0.03, affine=True, track_running_stats=True)
              (act): SiLU(inplace=True)
            )
            (2): Conv2d(240, 20, kernel_size=(1, 1), stride=(1, 1))
          )
          (anc2vec): Anchor2Vec(
            (anc2vec): Conv3d(16, 1, kernel_size=(1, 1, 1), stride=(1, 1, 1), bias=False)
          )
        )
      )
    )
    (23): CBLinear(
      (conv): Conv2d(240, 240, kernel_size=(1, 1), stride=(1, 1))
    )
    (24): CBLinear(
      (conv): Conv2d(360, 600, kernel_size=(1, 1), stride=(1, 1))
    )
    (25): CBLinear(
      (conv): Conv2d(480, 1080, kernel_size=(1, 1), stride=(1, 1))
    )
    (26): Conv(
      (conv): Conv2d(3, 32, kernel_size=(3, 3), stride=(2, 2), padding=(1, 1), bias=False)
      (bn): BatchNorm2d(32, eps=0.001, momentum=0.03, affine=True, track_running_stats=True)
      (act): SiLU(inplace=True)
    )
    (27): Conv(
      (conv): Conv2d(32, 64, kernel_size=(3, 3), stride=(2, 2), padding=(1, 1), bias=False)
      (bn): BatchNorm2d(64, eps=0.001, momentum=0.03, affine=True, track_running_stats=True)
      (act): SiLU(inplace=True)
    )
    (28): RepNCSPELAN(
      (conv1): Conv(
        (conv): Conv2d(64, 128, kernel_size=(1, 1), stride=(1, 1), bias=False)
        (bn): BatchNorm2d(128, eps=0.001, momentum=0.03, affine=True, track_running_stats=True)
        (act): SiLU(inplace=True)
      )
      (conv2): Sequential(
        (0): RepNCSP(
          (conv1): Conv(
            (conv): Conv2d(64, 32, kernel_size=(1, 1), stride=(1, 1), bias=False)
            (bn): BatchNorm2d(32, eps=0.001, momentum=0.03, affine=True, track_running_stats=True)
            (act): SiLU(inplace=True)
          )
          (conv2): Conv(
            (conv): Conv2d(64, 32, kernel_size=(1, 1), stride=(1, 1), bias=False)
            (bn): BatchNorm2d(32, eps=0.001, momentum=0.03, affine=True, track_running_stats=True)
            (act): SiLU(inplace=True)
          )
          (conv3): Conv(
            (conv): Conv2d(64, 64, kernel_size=(1, 1), stride=(1, 1), bias=False)
            (bn): BatchNorm2d(64, eps=0.001, momentum=0.03, affine=True, track_running_stats=True)
            (act): SiLU(inplace=True)
          )
          (bottleneck): Sequential(
            (0): Bottleneck(
              (conv1): RepConv(
                (act): SiLU(inplace=True)
                (conv1): Conv(
                  (conv): Conv2d(32, 32, kernel_size=(3, 3), stride=(1, 1), padding=(1, 1), bias=False)
                  (bn): BatchNorm2d(32, eps=0.001, momentum=0.03, affine=True, track_running_stats=True)
                  (act): Identity()
                )
                (conv2): Conv(
                  (conv): Conv2d(32, 32, kernel_size=(1, 1), stride=(1, 1), bias=False)
                  (bn): BatchNorm2d(32, eps=0.001, momentum=0.03, affine=True, track_running_stats=True)
                  (act): Identity()
                )
              )
              (conv2): Conv(
                (conv): Conv2d(32, 32, kernel_size=(3, 3), stride=(1, 1), padding=(1, 1), bias=False)
                (bn): BatchNorm2d(32, eps=0.001, momentum=0.03, affine=True, track_running_stats=True)
                (act): SiLU(inplace=True)
              )
            )
          )
        )
        (1): Conv(
          (conv): Conv2d(64, 64, kernel_size=(3, 3), stride=(1, 1), padding=(1, 1), bias=False)
          (bn): BatchNorm2d(64, eps=0.001, momentum=0.03, affine=True, track_running_stats=True)
          (act): SiLU(inplace=True)
        )
      )
      (conv3): Sequential(
        (0): RepNCSP(
          (conv1): Conv(
            (conv): Conv2d(64, 32, kernel_size=(1, 1), stride=(1, 1), bias=False)
            (bn): BatchNorm2d(32, eps=0.001, momentum=0.03, affine=True, track_running_stats=True)
            (act): SiLU(inplace=True)
          )
          (conv2): Conv(
            (conv): Conv2d(64, 32, kernel_size=(1, 1), stride=(1, 1), bias=False)
            (bn): BatchNorm2d(32, eps=0.001, momentum=0.03, affine=True, track_running_stats=True)
            (act): SiLU(inplace=True)
          )
          (conv3): Conv(
            (conv): Conv2d(64, 64, kernel_size=(1, 1), stride=(1, 1), bias=False)
            (bn): BatchNorm2d(64, eps=0.001, momentum=0.03, affine=True, track_running_stats=True)
            (act): SiLU(inplace=True)
          )
          (bottleneck): Sequential(
            (0): Bottleneck(
              (conv1): RepConv(
                (act): SiLU(inplace=True)
                (conv1): Conv(
                  (conv): Conv2d(32, 32, kernel_size=(3, 3), stride=(1, 1), padding=(1, 1), bias=False)
                  (bn): BatchNorm2d(32, eps=0.001, momentum=0.03, affine=True, track_running_stats=True)
                  (act): Identity()
                )
                (conv2): Conv(
                  (conv): Conv2d(32, 32, kernel_size=(1, 1), stride=(1, 1), bias=False)
                  (bn): BatchNorm2d(32, eps=0.001, momentum=0.03, affine=True, track_running_stats=True)
                  (act): Identity()
                )
              )
              (conv2): Conv(
                (conv): Conv2d(32, 32, kernel_size=(3, 3), stride=(1, 1), padding=(1, 1), bias=False)
                (bn): BatchNorm2d(32, eps=0.001, momentum=0.03, affine=True, track_running_stats=True)
                (act): SiLU(inplace=True)
              )
            )
          )
        )
        (1): Conv(
          (conv): Conv2d(64, 64, kernel_size=(3, 3), stride=(1, 1), padding=(1, 1), bias=False)
          (bn): BatchNorm2d(64, eps=0.001, momentum=0.03, affine=True, track_running_stats=True)
          (act): SiLU(inplace=True)
        )
      )
      (conv4): Conv(
        (conv): Conv2d(256, 128, kernel_size=(1, 1), stride=(1, 1), bias=False)
        (bn): BatchNorm2d(128, eps=0.001, momentum=0.03, affine=True, track_running_stats=True)
        (act): SiLU(inplace=True)
      )
    )
    (29): AConv(
      (avg_pool): Pool(
        (pool): AvgPool2d(kernel_size=2, stride=1, padding=(0, 0))
      )
      (conv): Conv(
        (conv): Conv2d(128, 240, kernel_size=(3, 3), stride=(2, 2), padding=(1, 1), bias=False)
        (bn): BatchNorm2d(240, eps=0.001, momentum=0.03, affine=True, track_running_stats=True)
        (act): SiLU(inplace=True)
      )
    )
    (30): CBFuse()
    (31): RepNCSPELAN(
      (conv1): Conv(
        (conv): Conv2d(240, 240, kernel_size=(1, 1), stride=(1, 1), bias=False)
        (bn): BatchNorm2d(240, eps=0.001, momentum=0.03, affine=True, track_running_stats=True)
        (act): SiLU(inplace=True)
      )
      (conv2): Sequential(
        (0): RepNCSP(
          (conv1): Conv(
            (conv): Conv2d(120, 60, kernel_size=(1, 1), stride=(1, 1), bias=False)
            (bn): BatchNorm2d(60, eps=0.001, momentum=0.03, affine=True, track_running_stats=True)
            (act): SiLU(inplace=True)
          )
          (conv2): Conv(
            (conv): Conv2d(120, 60, kernel_size=(1, 1), stride=(1, 1), bias=False)
            (bn): BatchNorm2d(60, eps=0.001, momentum=0.03, affine=True, track_running_stats=True)
            (act): SiLU(inplace=True)
          )
          (conv3): Conv(
            (conv): Conv2d(120, 120, kernel_size=(1, 1), stride=(1, 1), bias=False)
            (bn): BatchNorm2d(120, eps=0.001, momentum=0.03, affine=True, track_running_stats=True)
            (act): SiLU(inplace=True)
          )
          (bottleneck): Sequential(
            (0): Bottleneck(
              (conv1): RepConv(
                (act): SiLU(inplace=True)
                (conv1): Conv(
                  (conv): Conv2d(60, 60, kernel_size=(3, 3), stride=(1, 1), padding=(1, 1), bias=False)
                  (bn): BatchNorm2d(60, eps=0.001, momentum=0.03, affine=True, track_running_stats=True)
                  (act): Identity()
                )
                (conv2): Conv(
                  (conv): Conv2d(60, 60, kernel_size=(1, 1), stride=(1, 1), bias=False)
                  (bn): BatchNorm2d(60, eps=0.001, momentum=0.03, affine=True, track_running_stats=True)
                  (act): Identity()
                )
              )
              (conv2): Conv(
                (conv): Conv2d(60, 60, kernel_size=(3, 3), stride=(1, 1), padding=(1, 1), bias=False)
                (bn): BatchNorm2d(60, eps=0.001, momentum=0.03, affine=True, track_running_stats=True)
                (act): SiLU(inplace=True)
              )
            )
          )
        )
        (1): Conv(
          (conv): Conv2d(120, 120, kernel_size=(3, 3), stride=(1, 1), padding=(1, 1), bias=False)
          (bn): BatchNorm2d(120, eps=0.001, momentum=0.03, affine=True, track_running_stats=True)
          (act): SiLU(inplace=True)
        )
      )
      (conv3): Sequential(
        (0): RepNCSP(
          (conv1): Conv(
            (conv): Conv2d(120, 60, kernel_size=(1, 1), stride=(1, 1), bias=False)
            (bn): BatchNorm2d(60, eps=0.001, momentum=0.03, affine=True, track_running_stats=True)
            (act): SiLU(inplace=True)
          )
          (conv2): Conv(
            (conv): Conv2d(120, 60, kernel_size=(1, 1), stride=(1, 1), bias=False)
            (bn): BatchNorm2d(60, eps=0.001, momentum=0.03, affine=True, track_running_stats=True)
            (act): SiLU(inplace=True)
          )
          (conv3): Conv(
            (conv): Conv2d(120, 120, kernel_size=(1, 1), stride=(1, 1), bias=False)
            (bn): BatchNorm2d(120, eps=0.001, momentum=0.03, affine=True, track_running_stats=True)
            (act): SiLU(inplace=True)
          )
          (bottleneck): Sequential(
            (0): Bottleneck(
              (conv1): RepConv(
                (act): SiLU(inplace=True)
                (conv1): Conv(
                  (conv): Conv2d(60, 60, kernel_size=(3, 3), stride=(1, 1), padding=(1, 1), bias=False)
                  (bn): BatchNorm2d(60, eps=0.001, momentum=0.03, affine=True, track_running_stats=True)
                  (act): Identity()
                )
                (conv2): Conv(
                  (conv): Conv2d(60, 60, kernel_size=(1, 1), stride=(1, 1), bias=False)
                  (bn): BatchNorm2d(60, eps=0.001, momentum=0.03, affine=True, track_running_stats=True)
                  (act): Identity()
                )
              )
              (conv2): Conv(
                (conv): Conv2d(60, 60, kernel_size=(3, 3), stride=(1, 1), padding=(1, 1), bias=False)
                (bn): BatchNorm2d(60, eps=0.001, momentum=0.03, affine=True, track_running_stats=True)
                (act): SiLU(inplace=True)
              )
            )
          )
        )
        (1): Conv(
          (conv): Conv2d(120, 120, kernel_size=(3, 3), stride=(1, 1), padding=(1, 1), bias=False)
          (bn): BatchNorm2d(120, eps=0.001, momentum=0.03, affine=True, track_running_stats=True)
          (act): SiLU(inplace=True)
        )
      )
      (conv4): Conv(
        (conv): Conv2d(480, 240, kernel_size=(1, 1), stride=(1, 1), bias=False)
        (bn): BatchNorm2d(240, eps=0.001, momentum=0.03, affine=True, track_running_stats=True)
        (act): SiLU(inplace=True)
      )
    )
    (32): AConv(
      (avg_pool): Pool(
        (pool): AvgPool2d(kernel_size=2, stride=1, padding=(0, 0))
      )
      (conv): Conv(
        (conv): Conv2d(240, 360, kernel_size=(3, 3), stride=(2, 2), padding=(1, 1), bias=False)
        (bn): BatchNorm2d(360, eps=0.001, momentum=0.03, affine=True, track_running_stats=True)
        (act): SiLU(inplace=True)
      )
    )
    (33): CBFuse()
    (34): RepNCSPELAN(
      (conv1): Conv(
        (conv): Conv2d(360, 360, kernel_size=(1, 1), stride=(1, 1), bias=False)
        (bn): BatchNorm2d(360, eps=0.001, momentum=0.03, affine=True, track_running_stats=True)
        (act): SiLU(inplace=True)
      )
      (conv2): Sequential(
        (0): RepNCSP(
          (conv1): Conv(
            (conv): Conv2d(180, 90, kernel_size=(1, 1), stride=(1, 1), bias=False)
            (bn): BatchNorm2d(90, eps=0.001, momentum=0.03, affine=True, track_running_stats=True)
            (act): SiLU(inplace=True)
          )
          (conv2): Conv(
            (conv): Conv2d(180, 90, kernel_size=(1, 1), stride=(1, 1), bias=False)
            (bn): BatchNorm2d(90, eps=0.001, momentum=0.03, affine=True, track_running_stats=True)
            (act): SiLU(inplace=True)
          )
          (conv3): Conv(
            (conv): Conv2d(180, 180, kernel_size=(1, 1), stride=(1, 1), bias=False)
            (bn): BatchNorm2d(180, eps=0.001, momentum=0.03, affine=True, track_running_stats=True)
            (act): SiLU(inplace=True)
          )
          (bottleneck): Sequential(
            (0): Bottleneck(
              (conv1): RepConv(
                (act): SiLU(inplace=True)
                (conv1): Conv(
                  (conv): Conv2d(90, 90, kernel_size=(3, 3), stride=(1, 1), padding=(1, 1), bias=False)
                  (bn): BatchNorm2d(90, eps=0.001, momentum=0.03, affine=True, track_running_stats=True)
                  (act): Identity()
                )
                (conv2): Conv(
                  (conv): Conv2d(90, 90, kernel_size=(1, 1), stride=(1, 1), bias=False)
                  (bn): BatchNorm2d(90, eps=0.001, momentum=0.03, affine=True, track_running_stats=True)
                  (act): Identity()
                )
              )
              (conv2): Conv(
                (conv): Conv2d(90, 90, kernel_size=(3, 3), stride=(1, 1), padding=(1, 1), bias=False)
                (bn): BatchNorm2d(90, eps=0.001, momentum=0.03, affine=True, track_running_stats=True)
                (act): SiLU(inplace=True)
              )
            )
          )
        )
        (1): Conv(
          (conv): Conv2d(180, 180, kernel_size=(3, 3), stride=(1, 1), padding=(1, 1), bias=False)
          (bn): BatchNorm2d(180, eps=0.001, momentum=0.03, affine=True, track_running_stats=True)
          (act): SiLU(inplace=True)
        )
      )
      (conv3): Sequential(
        (0): RepNCSP(
          (conv1): Conv(
            (conv): Conv2d(180, 90, kernel_size=(1, 1), stride=(1, 1), bias=False)
            (bn): BatchNorm2d(90, eps=0.001, momentum=0.03, affine=True, track_running_stats=True)
            (act): SiLU(inplace=True)
          )
          (conv2): Conv(
            (conv): Conv2d(180, 90, kernel_size=(1, 1), stride=(1, 1), bias=False)
            (bn): BatchNorm2d(90, eps=0.001, momentum=0.03, affine=True, track_running_stats=True)
            (act): SiLU(inplace=True)
          )
          (conv3): Conv(
            (conv): Conv2d(180, 180, kernel_size=(1, 1), stride=(1, 1), bias=False)
            (bn): BatchNorm2d(180, eps=0.001, momentum=0.03, affine=True, track_running_stats=True)
            (act): SiLU(inplace=True)
          )
          (bottleneck): Sequential(
            (0): Bottleneck(
              (conv1): RepConv(
                (act): SiLU(inplace=True)
                (conv1): Conv(
                  (conv): Conv2d(90, 90, kernel_size=(3, 3), stride=(1, 1), padding=(1, 1), bias=False)
                  (bn): BatchNorm2d(90, eps=0.001, momentum=0.03, affine=True, track_running_stats=True)
                  (act): Identity()
                )
                (conv2): Conv(
                  (conv): Conv2d(90, 90, kernel_size=(1, 1), stride=(1, 1), bias=False)
                  (bn): BatchNorm2d(90, eps=0.001, momentum=0.03, affine=True, track_running_stats=True)
                  (act): Identity()
                )
              )
              (conv2): Conv(
                (conv): Conv2d(90, 90, kernel_size=(3, 3), stride=(1, 1), padding=(1, 1), bias=False)
                (bn): BatchNorm2d(90, eps=0.001, momentum=0.03, affine=True, track_running_stats=True)
                (act): SiLU(inplace=True)
              )
            )
          )
        )
        (1): Conv(
          (conv): Conv2d(180, 180, kernel_size=(3, 3), stride=(1, 1), padding=(1, 1), bias=False)
          (bn): BatchNorm2d(180, eps=0.001, momentum=0.03, affine=True, track_running_stats=True)
          (act): SiLU(inplace=True)
        )
      )
      (conv4): Conv(
        (conv): Conv2d(720, 360, kernel_size=(1, 1), stride=(1, 1), bias=False)
        (bn): BatchNorm2d(360, eps=0.001, momentum=0.03, affine=True, track_running_stats=True)
        (act): SiLU(inplace=True)
      )
    )
    (35): AConv(
      (avg_pool): Pool(
        (pool): AvgPool2d(kernel_size=2, stride=1, padding=(0, 0))
      )
      (conv): Conv(
        (conv): Conv2d(360, 480, kernel_size=(3, 3), stride=(2, 2), padding=(1, 1), bias=False)
        (bn): BatchNorm2d(480, eps=0.001, momentum=0.03, affine=True, track_running_stats=True)
        (act): SiLU(inplace=True)
      )
    )
    (36): CBFuse()
    (37): RepNCSPELAN(
      (conv1): Conv(
        (conv): Conv2d(480, 480, kernel_size=(1, 1), stride=(1, 1), bias=False)
        (bn): BatchNorm2d(480, eps=0.001, momentum=0.03, affine=True, track_running_stats=True)
        (act): SiLU(inplace=True)
      )
      (conv2): Sequential(
        (0): RepNCSP(
          (conv1): Conv(
            (conv): Conv2d(240, 120, kernel_size=(1, 1), stride=(1, 1), bias=False)
            (bn): BatchNorm2d(120, eps=0.001, momentum=0.03, affine=True, track_running_stats=True)
            (act): SiLU(inplace=True)
          )
          (conv2): Conv(
            (conv): Conv2d(240, 120, kernel_size=(1, 1), stride=(1, 1), bias=False)
            (bn): BatchNorm2d(120, eps=0.001, momentum=0.03, affine=True, track_running_stats=True)
            (act): SiLU(inplace=True)
          )
          (conv3): Conv(
            (conv): Conv2d(240, 240, kernel_size=(1, 1), stride=(1, 1), bias=False)
            (bn): BatchNorm2d(240, eps=0.001, momentum=0.03, affine=True, track_running_stats=True)
            (act): SiLU(inplace=True)
          )
          (bottleneck): Sequential(
            (0): Bottleneck(
              (conv1): RepConv(
                (act): SiLU(inplace=True)
                (conv1): Conv(
                  (conv): Conv2d(120, 120, kernel_size=(3, 3), stride=(1, 1), padding=(1, 1), bias=False)
                  (bn): BatchNorm2d(120, eps=0.001, momentum=0.03, affine=True, track_running_stats=True)
                  (act): Identity()
                )
                (conv2): Conv(
                  (conv): Conv2d(120, 120, kernel_size=(1, 1), stride=(1, 1), bias=False)
                  (bn): BatchNorm2d(120, eps=0.001, momentum=0.03, affine=True, track_running_stats=True)
                  (act): Identity()
                )
              )
              (conv2): Conv(
                (conv): Conv2d(120, 120, kernel_size=(3, 3), stride=(1, 1), padding=(1, 1), bias=False)
                (bn): BatchNorm2d(120, eps=0.001, momentum=0.03, affine=True, track_running_stats=True)
                (act): SiLU(inplace=True)
              )
            )
          )
        )
        (1): Conv(
          (conv): Conv2d(240, 240, kernel_size=(3, 3), stride=(1, 1), padding=(1, 1), bias=False)
          (bn): BatchNorm2d(240, eps=0.001, momentum=0.03, affine=True, track_running_stats=True)
          (act): SiLU(inplace=True)
        )
      )
      (conv3): Sequential(
        (0): RepNCSP(
          (conv1): Conv(
            (conv): Conv2d(240, 120, kernel_size=(1, 1), stride=(1, 1), bias=False)
            (bn): BatchNorm2d(120, eps=0.001, momentum=0.03, affine=True, track_running_stats=True)
            (act): SiLU(inplace=True)
          )
          (conv2): Conv(
            (conv): Conv2d(240, 120, kernel_size=(1, 1), stride=(1, 1), bias=False)
            (bn): BatchNorm2d(120, eps=0.001, momentum=0.03, affine=True, track_running_stats=True)
            (act): SiLU(inplace=True)
          )
          (conv3): Conv(
            (conv): Conv2d(240, 240, kernel_size=(1, 1), stride=(1, 1), bias=False)
            (bn): BatchNorm2d(240, eps=0.001, momentum=0.03, affine=True, track_running_stats=True)
            (act): SiLU(inplace=True)
          )
          (bottleneck): Sequential(
            (0): Bottleneck(
              (conv1): RepConv(
                (act): SiLU(inplace=True)
                (conv1): Conv(
                  (conv): Conv2d(120, 120, kernel_size=(3, 3), stride=(1, 1), padding=(1, 1), bias=False)
                  (bn): BatchNorm2d(120, eps=0.001, momentum=0.03, affine=True, track_running_stats=True)
                  (act): Identity()
                )
                (conv2): Conv(
                  (conv): Conv2d(120, 120, kernel_size=(1, 1), stride=(1, 1), bias=False)
                  (bn): BatchNorm2d(120, eps=0.001, momentum=0.03, affine=True, track_running_stats=True)
                  (act): Identity()
                )
              )
              (conv2): Conv(
                (conv): Conv2d(120, 120, kernel_size=(3, 3), stride=(1, 1), padding=(1, 1), bias=False)
                (bn): BatchNorm2d(120, eps=0.001, momentum=0.03, affine=True, track_running_stats=True)
                (act): SiLU(inplace=True)
              )
            )
          )
        )
        (1): Conv(
          (conv): Conv2d(240, 240, kernel_size=(3, 3), stride=(1, 1), padding=(1, 1), bias=False)
          (bn): BatchNorm2d(240, eps=0.001, momentum=0.03, affine=True, track_running_stats=True)
          (act): SiLU(inplace=True)
        )
      )
      (conv4): Conv(
        (conv): Conv2d(960, 480, kernel_size=(1, 1), stride=(1, 1), bias=False)
        (bn): BatchNorm2d(480, eps=0.001, momentum=0.03, affine=True, track_running_stats=True)
        (act): SiLU(inplace=True)
      )
    )
    (38): MultiheadDetection(
      (heads): ModuleList(
        (0): Detection(
          (anchor_conv): Sequential(
            (0): Conv(
              (conv): Conv2d(240, 64, kernel_size=(3, 3), stride=(1, 1), padding=(1, 1), bias=False)
              (bn): BatchNorm2d(64, eps=0.001, momentum=0.03, affine=True, track_running_stats=True)
              (act): SiLU(inplace=True)
            )
            (1): Conv(
              (conv): Conv2d(64, 64, kernel_size=(3, 3), stride=(1, 1), padding=(1, 1), groups=4, bias=False)
              (bn): BatchNorm2d(64, eps=0.001, momentum=0.03, affine=True, track_running_stats=True)
              (act): SiLU(inplace=True)
            )
            (2): Conv2d(64, 64, kernel_size=(1, 1), stride=(1, 1), groups=4)
          )
          (class_conv): Sequential(
            (0): Conv(
              (conv): Conv2d(240, 240, kernel_size=(3, 3), stride=(1, 1), padding=(1, 1), bias=False)
              (bn): BatchNorm2d(240, eps=0.001, momentum=0.03, affine=True, track_running_stats=True)
              (act): SiLU(inplace=True)
            )
            (1): Conv(
              (conv): Conv2d(240, 240, kernel_size=(3, 3), stride=(1, 1), padding=(1, 1), bias=False)
              (bn): BatchNorm2d(240, eps=0.001, momentum=0.03, affine=True, track_running_stats=True)
              (act): SiLU(inplace=True)
            )
            (2): Conv2d(240, 20, kernel_size=(1, 1), stride=(1, 1))
          )
          (anc2vec): Anchor2Vec(
            (anc2vec): Conv3d(16, 1, kernel_size=(1, 1, 1), stride=(1, 1, 1), bias=False)
          )
        )
        (1): Detection(
          (anchor_conv): Sequential(
            (0): Conv(
              (conv): Conv2d(360, 64, kernel_size=(3, 3), stride=(1, 1), padding=(1, 1), bias=False)
              (bn): BatchNorm2d(64, eps=0.001, momentum=0.03, affine=True, track_running_stats=True)
              (act): SiLU(inplace=True)
            )
            (1): Conv(
              (conv): Conv2d(64, 64, kernel_size=(3, 3), stride=(1, 1), padding=(1, 1), groups=4, bias=False)
              (bn): BatchNorm2d(64, eps=0.001, momentum=0.03, affine=True, track_running_stats=True)
              (act): SiLU(inplace=True)
            )
            (2): Conv2d(64, 64, kernel_size=(1, 1), stride=(1, 1), groups=4)
          )
          (class_conv): Sequential(
            (0): Conv(
              (conv): Conv2d(360, 240, kernel_size=(3, 3), stride=(1, 1), padding=(1, 1), bias=False)
              (bn): BatchNorm2d(240, eps=0.001, momentum=0.03, affine=True, track_running_stats=True)
              (act): SiLU(inplace=True)
            )
            (1): Conv(
              (conv): Conv2d(240, 240, kernel_size=(3, 3), stride=(1, 1), padding=(1, 1), bias=False)
              (bn): BatchNorm2d(240, eps=0.001, momentum=0.03, affine=True, track_running_stats=True)
              (act): SiLU(inplace=True)
            )
            (2): Conv2d(240, 20, kernel_size=(1, 1), stride=(1, 1))
          )
          (anc2vec): Anchor2Vec(
            (anc2vec): Conv3d(16, 1, kernel_size=(1, 1, 1), stride=(1, 1, 1), bias=False)
          )
        )
        (2): Detection(
          (anchor_conv): Sequential(
            (0): Conv(
              (conv): Conv2d(480, 64, kernel_size=(3, 3), stride=(1, 1), padding=(1, 1), bias=False)
              (bn): BatchNorm2d(64, eps=0.001, momentum=0.03, affine=True, track_running_stats=True)
              (act): SiLU(inplace=True)
            )
            (1): Conv(
              (conv): Conv2d(64, 64, kernel_size=(3, 3), stride=(1, 1), padding=(1, 1), groups=4, bias=False)
              (bn): BatchNorm2d(64, eps=0.001, momentum=0.03, affine=True, track_running_stats=True)
              (act): SiLU(inplace=True)
            )
            (2): Conv2d(64, 64, kernel_size=(1, 1), stride=(1, 1), groups=4)
          )
          (class_conv): Sequential(
            (0): Conv(
              (conv): Conv2d(480, 240, kernel_size=(3, 3), stride=(1, 1), padding=(1, 1), bias=False)
              (bn): BatchNorm2d(240, eps=0.001, momentum=0.03, affine=True, track_running_stats=True)
              (act): SiLU(inplace=True)
            )
            (1): Conv(
              (conv): Conv2d(240, 240, kernel_size=(3, 3), stride=(1, 1), padding=(1, 1), bias=False)
              (bn): BatchNorm2d(240, eps=0.001, momentum=0.03, affine=True, track_running_stats=True)
              (act): SiLU(inplace=True)
            )
            (2): Conv2d(240, 20, kernel_size=(1, 1), stride=(1, 1))
          )
          (anc2vec): Anchor2Vec(
            (anc2vec): Conv3d(16, 1, kernel_size=(1, 1, 1), stride=(1, 1, 1), bias=False)
          )
        )
      )
    )
  )
)
img_name train2012/2011_000453.jpg
image_info 2011_000453
img_name train2012/2008_008616.jpg
image_info 2008_008616
img_name train2012/2008_006481.jpg
image_info 2008_006481
img_name train2012/2008_001329.jpg
image_info 2008_001329
img_name train2012/2008_000361.jpg
image_info 2008_000361
img_name train2012/2009_003808.jpg
…
