…
ebooks=32, mixup_alpha=0.1, baseinit_samples=30000, spatial_feat_dim=8, feat_memsize=3000, mosaic_prob=0.0, mixup_prob=0.0)
[INFO] Set the device (cuda)
args.use_human_training False
[INFO] Select a CIL method (er_selection)
/mnt/disk2/mjlee/Online_CLOD/methods/er_baseline.py:75: FutureWarning: `torch.cuda.amp.GradScaler(args...)` is deprecated. Please use `torch.amp.GradScaler('cuda', args...)` instead.
  self.scaler = torch.cuda.amp.GradScaler()
Building DAMO-YOLO model
Detector(
  (backbone): TinyNAS(
    (block_list): ModuleList(
      (0): Focus(
        (conv): ConvBNAct(
          (conv): Conv2d(12, 32, kernel_size=(3, 3), stride=(1, 1), padding=(1, 1), bias=False)
          (bn): BatchNorm2d(32, eps=0.001, momentum=0.03, affine=True, track_running_stats=True)
          (act): ReLU(inplace=True)
        )
      )
      (1): SuperResStem(
        (act): ReLU(inplace=True)
        (block_list): ModuleList(
          (0): ResConvBlock(
            (conv1): ConvKXBN(
              (conv1): Conv2d(32, 24, kernel_size=(1, 1), stride=(1, 1), bias=False)
              (bn1): BatchNorm2d(24, eps=0.001, momentum=0.03, affine=True, track_running_stats=True)
            )
            (conv2): RepConv(
              (nonlinearity): Identity()
              (rbr_dense): Sequential(
                (conv): Conv2d(24, 128, kernel_size=(3, 3), stride=(2, 2), padding=(1, 1), bias=False)
                (bn): BatchNorm2d(128, eps=0.001, momentum=0.03, affine=True, track_running_stats=True)
              )
              (rbr_1x1): Sequential(
                (conv): Conv2d(24, 128, kernel_size=(1, 1), stride=(2, 2), bias=False)
                (bn): BatchNorm2d(128, eps=0.001, momentum=0.03, affine=True, track_running_stats=True)
              )
            )
            (activation_function): ReLU(inplace=True)
          )
        )
      )
      (2): SuperResStem(
        (act): ReLU(inplace=True)
        (block_list): ModuleList(
          (0): ResConvBlock(
            (conv1): ConvKXBN(
              (conv1): Conv2d(128, 88, kernel_size=(1, 1), stride=(1, 1), bias=False)
              (bn1): BatchNorm2d(88, eps=0.001, momentum=0.03, affine=True, track_running_stats=True)
            )
            (conv2): RepConv(
              (nonlinearity): Identity()
              (rbr_dense): Sequential(
                (conv): Conv2d(88, 128, kernel_size=(3, 3), stride=(2, 2), padding=(1, 1), bias=False)
                (bn): BatchNorm2d(128, eps=0.001, momentum=0.03, affine=True, track_running_stats=True)
              )
              (rbr_1x1): Sequential(
                (conv): Conv2d(88, 128, kernel_size=(1, 1), stride=(2, 2), bias=False)
                (bn): BatchNorm2d(128, eps=0.001, momentum=0.03, affine=True, track_running_stats=True)
              )
            )
            (activation_function): ReLU(inplace=True)
          )
          (1-4): 4 x ResConvBlock(
            (conv1): ConvKXBN(
              (conv1): Conv2d(128, 88, kernel_size=(1, 1), stride=(1, 1), bias=False)
              (bn1): BatchNorm2d(88, eps=0.001, momentum=0.03, affine=True, track_running_stats=True)
            )
            (conv2): RepConv(
              (nonlinearity): Identity()
              (rbr_dense): Sequential(
                (conv): Conv2d(88, 128, kernel_size=(3, 3), stride=(1, 1), padding=(1, 1), bias=False)
                (bn): BatchNorm2d(128, eps=0.001, momentum=0.03, affine=True, track_running_stats=True)
              )
              (rbr_1x1): Sequential(
                (conv): Conv2d(88, 128, kernel_size=(1, 1), stride=(1, 1), bias=False)
                (bn): BatchNorm2d(128, eps=0.001, momentum=0.03, affine=True, track_running_stats=True)
              )
            )
            (activation_function): ReLU(inplace=True)
          )
        )
      )
      (3): SuperResStem(
        (act): ReLU(inplace=True)
        (block_list): ModuleList(
          (0): ResConvBlock(
            (conv1): ConvKXBN(
              (conv1): Conv2d(128, 128, kernel_size=(1, 1), stride=(1, 1), bias=False)
              (bn1): BatchNorm2d(128, eps=0.001, momentum=0.03, affine=True, track_running_stats=True)
            )
            (conv2): RepConv(
              (nonlinearity): Identity()
              (rbr_dense): Sequential(
                (conv): Conv2d(128, 256, kernel_size=(3, 3), stride=(2, 2), padding=(1, 1), bias=False)
                (bn): BatchNorm2d(256, eps=0.001, momentum=0.03, affine=True, track_running_stats=True)
              )
              (rbr_1x1): Sequential(
                (conv): Conv2d(128, 256, kernel_size=(1, 1), stride=(2, 2), bias=False)
                (bn): BatchNorm2d(256, eps=0.001, momentum=0.03, affine=True, track_running_stats=True)
              )
            )
            (activation_function): ReLU(inplace=True)
          )
          (1-2): 2 x ResConvBlock(
            (conv1): ConvKXBN(
              (conv1): Conv2d(256, 128, kernel_size=(1, 1), stride=(1, 1), bias=False)
              (bn1): BatchNorm2d(128, eps=0.001, momentum=0.03, affine=True, track_running_stats=True)
            )
            (conv2): RepConv(
              (nonlinearity): Identity()
              (rbr_dense): Sequential(
                (conv): Conv2d(128, 256, kernel_size=(3, 3), stride=(1, 1), padding=(1, 1), bias=False)
                (bn): BatchNorm2d(256, eps=0.001, momentum=0.03, affine=True, track_running_stats=True)
              )
              (rbr_1x1): Sequential(
                (conv): Conv2d(128, 256, kernel_size=(1, 1), stride=(1, 1), bias=False)
                (bn): BatchNorm2d(256, eps=0.001, momentum=0.03, affine=True, track_running_stats=True)
              )
            )
            (activation_function): ReLU(inplace=True)
          )
        )
      )
      (4): SuperResStem(
        (act): ReLU(inplace=True)
        (block_list): ModuleList(
          (0-1): 2 x ResConvBlock(
            (conv1): ConvKXBN(
              (conv1): Conv2d(256, 120, kernel_size=(1, 1), stride=(1, 1), bias=False)
              (bn1): BatchNorm2d(120, eps=0.001, momentum=0.03, affine=True, track_running_stats=True)
            )
            (conv2): RepConv(
              (nonlinearity): Identity()
              (rbr_dense): Sequential(
                (conv): Conv2d(120, 256, kernel_size=(3, 3), stride=(1, 1), padding=(1, 1), bias=False)
                (bn): BatchNorm2d(256, eps=0.001, momentum=0.03, affine=True, track_running_stats=True)
              )
              (rbr_1x1): Sequential(
                (conv): Conv2d(120, 256, kernel_size=(1, 1), stride=(1, 1), bias=False)
                (bn): BatchNorm2d(256, eps=0.001, momentum=0.03, affine=True, track_running_stats=True)
              )
            )
            (activation_function): ReLU(inplace=True)
          )
        )
      )
      (5): SuperResStem(
        (act): ReLU(inplace=True)
        (block_list): ModuleList(
          (0): ResConvBlock(
            (conv1): ConvKXBN(
              (conv1): Conv2d(256, 144, kernel_size=(1, 1), stride=(1, 1), bias=False)
              (bn1): BatchNorm2d(144, eps=0.001, momentum=0.03, affine=True, track_running_stats=True)
            )
            (conv2): RepConv(
              (nonlinearity): Identity()
              (rbr_dense): Sequential(
                (conv): Conv2d(144, 512, kernel_size=(3, 3), stride=(2, 2), padding=(1, 1), bias=False)
                (bn): BatchNorm2d(512, eps=0.001, momentum=0.03, affine=True, track_running_stats=True)
              )
              (rbr_1x1): Sequential(
                (conv): Conv2d(144, 512, kernel_size=(1, 1), stride=(2, 2), bias=False)
                (bn): BatchNorm2d(512, eps=0.001, momentum=0.03, affine=True, track_running_stats=True)
              )
            )
            (activation_function): ReLU(inplace=True)
          )
          (1): SPPBottleneck(
            (conv1): ConvBNAct(
              (conv): Conv2d(512, 256, kernel_size=(1, 1), stride=(1, 1), bias=False)
              (bn): BatchNorm2d(256, eps=0.001, momentum=0.03, affine=True, track_running_stats=True)
              (act): SiLU(inplace=True)
            )
            (m): ModuleList(
              (0): MaxPool2d(kernel_size=5, stride=1, padding=2, dilation=1, ceil_mode=False)
              (1): MaxPool2d(kernel_size=9, stride=1, padding=4, dilation=1, ceil_mode=False)
              (2): MaxPool2d(kernel_size=13, stride=1, padding=6, dilation=1, ceil_mode=False)
            )
            (conv2): ConvBNAct(
              (conv): Conv2d(1024, 512, kernel_size=(1, 1), stride=(1, 1), bias=False)
              (bn): BatchNorm2d(512, eps=0.001, momentum=0.03, affine=True, track_running_stats=True)
              (act): SiLU(inplace=True)
            )
          )
        )
      )
    )
  )
  (neck): GiraffeNeckV2(
    (upsample): Upsample(scale_factor=2.0, mode='nearest')
    (bu_conv13): ConvBNAct(
      (conv): Conv2d(256, 256, kernel_size=(3, 3), stride=(2, 2), padding=(1, 1), bias=False)
      (bn): BatchNorm2d(256, eps=0.001, momentum=0.03, affine=True, track_running_stats=True)
      (act): ReLU(inplace=True)
    )
    (merge_3): CSPStage(
      (conv1): ConvBNAct(
        (conv): Conv2d(768, 256, kernel_size=(1, 1), stride=(1, 1), bias=False)
        (bn): BatchNorm2d(256, eps=0.001, momentum=0.03, affine=True, track_running_stats=True)
        (act): ReLU(inplace=True)
      )
      (conv2): ConvBNAct(
        (conv): Conv2d(768, 256, kernel_size=(1, 1), stride=(1, 1), bias=False)
        (bn): BatchNorm2d(256, eps=0.001, momentum=0.03, affine=True, track_running_stats=True)
        (act): ReLU(inplace=True)
      )
      (convs): Sequential(
        (0): BasicBlock_3x3_Reverse(
          (conv1): ConvBNAct(
            (conv): Conv2d(192, 256, kernel_size=(3, 3), stride=(1, 1), padding=(1, 1), bias=False)
            (bn): BatchNorm2d(256, eps=0.001, momentum=0.03, affine=True, track_running_stats=True)
            (act): ReLU(inplace=True)
          )
          (conv2): RepConv(
            (nonlinearity): ReLU(inplace=True)
            (rbr_dense): Sequential(
              (conv): Conv2d(256, 192, kernel_size=(3, 3), stride=(1, 1), padding=(1, 1), bias=False)
              (bn): BatchNorm2d(192, eps=0.001, momentum=0.03, affine=True, track_running_stats=True)
            )
            (rbr_1x1): Sequential(
              (conv): Conv2d(256, 192, kernel_size=(1, 1), stride=(1, 1), bias=False)
              (bn): BatchNorm2d(192, eps=0.001, momentum=0.03, affine=True, track_running_stats=True)
            )
          )
        )
        (1): BasicBlock_3x3_Reverse(
          (conv1): ConvBNAct(
            (conv): Conv2d(192, 256, kernel_size=(3, 3), stride=(1, 1), padding=(1, 1), bias=False)
            (bn): BatchNorm2d(256, eps=0.001, momentum=0.03, affine=True, track_running_stats=True)
            (act): ReLU(inplace=True)
          )
          (conv2): RepConv(
            (nonlinearity): ReLU(inplace=True)
            (rbr_dense): Sequential(
              (conv): Conv2d(256, 192, kernel_size=(3, 3), stride=(1, 1), padding=(1, 1), bias=False)
              (bn): BatchNorm2d(192, eps=0.001, momentum=0.03, affine=True, track_running_stats=True)
            )
            (rbr_1x1): Sequential(
              (conv): Conv2d(256, 192, kernel_size=(1, 1), stride=(1, 1), bias=False)
              (bn): BatchNorm2d(192, eps=0.001, momentum=0.03, affine=True, track_running_stats=True)
            )
          )
        )
        (2): BasicBlock_3x3_Reverse(
          (conv1): ConvBNAct(
            (conv): Conv2d(192, 256, kernel_size=(3, 3), stride=(1, 1), padding=(1, 1), bias=False)
            (bn): BatchNorm2d(256, eps=0.001, momentum=0.03, affine=True, track_running_stats=True)
            (act): ReLU(inplace=True)
          )
          (conv2): RepConv(
            (nonlinearity): ReLU(inplace=True)
            (rbr_dense): Sequential(
              (conv): Conv2d(256, 192, kernel_size=(3, 3), stride=(1, 1), padding=(1, 1), bias=False)
              (bn): BatchNorm2d(192, eps=0.001, momentum=0.03, affine=True, track_running_stats=True)
            )
            (rbr_1x1): Sequential(
              (conv): Conv2d(256, 192, kernel_size=(1, 1), stride=(1, 1), bias=False)
              (bn): BatchNorm2d(192, eps=0.001, momentum=0.03, affine=True, track_running_stats=True)
            )
          )
        )
      )
      (conv3): ConvBNAct(
        (conv): Conv2d(1024, 512, kernel_size=(1, 1), stride=(1, 1), bias=False)
        (bn): BatchNorm2d(512, eps=0.001, momentum=0.03, affine=True, track_running_stats=True)
        (act): ReLU(inplace=True)
      )
    )
    (bu_conv24): ConvBNAct(
      (conv): Conv2d(128, 128, kernel_size=(3, 3), stride=(2, 2), padding=(1, 1), bias=False)
      (bn): BatchNorm2d(128, eps=0.001, momentum=0.03, affine=True, track_running_stats=True)
      (act): ReLU(inplace=True)
    )
    (merge_4): CSPStage(
      (conv1): ConvBNAct(
        (conv): Conv2d(896, 128, kernel_size=(1, 1), stride=(1, 1), bias=False)
        (bn): BatchNorm2d(128, eps=0.001, momentum=0.03, affine=True, track_running_stats=True)
        (act): ReLU(inplace=True)
      )
      (conv2): ConvBNAct(
        (conv): Conv2d(896, 128, kernel_size=(1, 1), stride=(1, 1), bias=False)
        (bn): BatchNorm2d(128, eps=0.001, momentum=0.03, affine=True, track_running_stats=True)
        (act): ReLU(inplace=True)
      )
      (convs): Sequential(
        (0): BasicBlock_3x3_Reverse(
          (conv1): ConvBNAct(
            (conv): Conv2d(96, 128, kernel_size=(3, 3), stride=(1, 1), padding=(1, 1), bias=False)
            (bn): BatchNorm2d(128, eps=0.001, momentum=0.03, affine=True, track_running_stats=True)
            (act): ReLU(inplace=True)
          )
          (conv2): RepConv(
            (nonlinearity): ReLU(inplace=True)
            (rbr_dense): Sequential(
              (conv): Conv2d(128, 96, kernel_size=(3, 3), stride=(1, 1), padding=(1, 1), bias=False)
              (bn): BatchNorm2d(96, eps=0.001, momentum=0.03, affine=True, track_running_stats=True)
            )
            (rbr_1x1): Sequential(
              (conv): Conv2d(128, 96, kernel_size=(1, 1), stride=(1, 1), bias=False)
              (bn): BatchNorm2d(96, eps=0.001, momentum=0.03, affine=True, track_running_stats=True)
            )
          )
        )
        (1): BasicBlock_3x3_Reverse(
          (conv1): ConvBNAct(
            (conv): Conv2d(96, 128, kernel_size=(3, 3), stride=(1, 1), padding=(1, 1), bias=False)
            (bn): BatchNorm2d(128, eps=0.001, momentum=0.03, affine=True, track_running_stats=True)
            (act): ReLU(inplace=True)
          )
          (conv2): RepConv(
            (nonlinearity): ReLU(inplace=True)
            (rbr_dense): Sequential(
              (conv): Conv2d(128, 96, kernel_size=(3, 3), stride=(1, 1), padding=(1, 1), bias=False)
              (bn): BatchNorm2d(96, eps=0.001, momentum=0.03, affine=True, track_running_stats=True)
            )
            (rbr_1x1): Sequential(
              (conv): Conv2d(128, 96, kernel_size=(1, 1), stride=(1, 1), bias=False)
              (bn): BatchNorm2d(96, eps=0.001, momentum=0.03, affine=True, track_running_stats=True)
            )
          )
        )
        (2): BasicBlock_3x3_Reverse(
          (conv1): ConvBNAct(
            (conv): Conv2d(96, 128, kernel_size=(3, 3), stride=(1, 1), padding=(1, 1), bias=False)
            (bn): BatchNorm2d(128, eps=0.001, momentum=0.03, affine=True, track_running_stats=True)
            (act): ReLU(inplace=True)
          )
          (conv2): RepConv(
            (nonlinearity): ReLU(inplace=True)
            (rbr_dense): Sequential(
              (conv): Conv2d(128, 96, kernel_size=(3, 3), stride=(1, 1), padding=(1, 1), bias=False)
              (bn): BatchNorm2d(96, eps=0.001, momentum=0.03, affine=True, track_running_stats=True)
            )
            (rbr_1x1): Sequential(
              (conv): Conv2d(128, 96, kernel_size=(1, 1), stride=(1, 1), bias=False)
              (bn): BatchNorm2d(96, eps=0.001, momentum=0.03, affine=True, track_running_stats=True)
            )
          )
        )
      )
      (conv3): ConvBNAct(
        (conv): Conv2d(512, 256, kernel_size=(1, 1), stride=(1, 1), bias=False)
        (bn): BatchNorm2d(256, eps=0.001, momentum=0.03, affine=True, track_running_stats=True)
        (act): ReLU(inplace=True)
      )
    )
    (merge_5): CSPStage(
      (conv1): ConvBNAct(
        (conv): Conv2d(384, 64, kernel_size=(1, 1), stride=(1, 1), bias=False)
        (bn): BatchNorm2d(64, eps=0.001, momentum=0.03, affine=True, track_running_stats=True)
        (act): ReLU(inplace=True)
      )
      (conv2): ConvBNAct(
        (conv): Conv2d(384, 64, kernel_size=(1, 1), stride=(1, 1), bias=False)
        (bn): BatchNorm2d(64, eps=0.001, momentum=0.03, affine=True, track_running_stats=True)
        (act): ReLU(inplace=True)
      )
      (convs): Sequential(
        (0): BasicBlock_3x3_Reverse(
          (conv1): ConvBNAct(
            (conv): Conv2d(48, 64, kernel_size=(3, 3), stride=(1, 1), padding=(1, 1), bias=False)
            (bn): BatchNorm2d(64, eps=0.001, momentum=0.03, affine=True, track_running_stats=True)
            (act): ReLU(inplace=True)
          )
          (conv2): RepConv(
            (nonlinearity): ReLU(inplace=True)
            (rbr_dense): Sequential(
              (conv): Conv2d(64, 48, kernel_size=(3, 3), stride=(1, 1), padding=(1, 1), bias=False)
              (bn): BatchNorm2d(48, eps=0.001, momentum=0.03, affine=True, track_running_stats=True)
            )
            (rbr_1x1): Sequential(
              (conv): Conv2d(64, 48, kernel_size=(1, 1), stride=(1, 1), bias=False)
              (bn): BatchNorm2d(48, eps=0.001, momentum=0.03, affine=True, track_running_stats=True)
            )
          )
        )
        (1): BasicBlock_3x3_Reverse(
          (conv1): ConvBNAct(
            (conv): Conv2d(48, 64, kernel_size=(3, 3), stride=(1, 1), padding=(1, 1), bias=False)
            (bn): BatchNorm2d(64, eps=0.001, momentum=0.03, affine=True, track_running_stats=True)
            (act): ReLU(inplace=True)
          )
          (conv2): RepConv(
            (nonlinearity): ReLU(inplace=True)
            (rbr_dense): Sequential(
              (conv): Conv2d(64, 48, kernel_size=(3, 3), stride=(1, 1), padding=(1, 1), bias=False)
              (bn): BatchNorm2d(48, eps=0.001, momentum=0.03, affine=True, track_running_stats=True)
            )
            (rbr_1x1): Sequential(
              (conv): Conv2d(64, 48, kernel_size=(1, 1), stride=(1, 1), bias=False)
              (bn): BatchNorm2d(48, eps=0.001, momentum=0.03, affine=True, track_running_stats=True)
            )
          )
        )
        (2): BasicBlock_3x3_Reverse(
          (conv1): ConvBNAct(
            (conv): Conv2d(48, 64, kernel_size=(3, 3), stride=(1, 1), padding=(1, 1), bias=False)
            (bn): BatchNorm2d(64, eps=0.001, momentum=0.03, affine=True, track_running_stats=True)
            (act): ReLU(inplace=True)
          )
          (conv2): RepConv(
            (nonlinearity): ReLU(inplace=True)
            (rbr_dense): Sequential(
              (conv): Conv2d(64, 48, kernel_size=(3, 3), stride=(1, 1), padding=(1, 1), bias=False)
              (bn): BatchNorm2d(48, eps=0.001, momentum=0.03, affine=True, track_running_stats=True)
            )
            (rbr_1x1): Sequential(
              (conv): Conv2d(64, 48, kernel_size=(1, 1), stride=(1, 1), bias=False)
              (bn): BatchNorm2d(48, eps=0.001, momentum=0.03, affine=True, track_running_stats=True)
            )
          )
        )
      )
      (conv3): ConvBNAct(
        (conv): Conv2d(256, 128, kernel_size=(1, 1), stride=(1, 1), bias=False)
        (bn): BatchNorm2d(128, eps=0.001, momentum=0.03, affine=True, track_running_stats=True)
        (act): ReLU(inplace=True)
      )
    )
    (bu_conv57): ConvBNAct(
      (conv): Conv2d(128, 128, kernel_size=(3, 3), stride=(2, 2), padding=(1, 1), bias=False)
      (bn): BatchNorm2d(128, eps=0.001, momentum=0.03, affine=True, track_running_stats=True)
      (act): ReLU(inplace=True)
    )
    (merge_7): CSPStage(
      (conv1): ConvBNAct(
        (conv): Conv2d(384, 128, kernel_size=(1, 1), stride=(1, 1), bias=False)
        (bn): BatchNorm2d(128, eps=0.001, momentum=0.03, affine=True, track_running_stats=True)
        (act): ReLU(inplace=True)
      )
      (conv2): ConvBNAct(
        (conv): Conv2d(384, 128, kernel_size=(1, 1), stride=(1, 1), bias=False)
        (bn): BatchNorm2d(128, eps=0.001, momentum=0.03, affine=True, track_running_stats=True)
        (act): ReLU(inplace=True)
      )
      (convs): Sequential(
        (0): BasicBlock_3x3_Reverse(
          (conv1): ConvBNAct(
            (conv): Conv2d(96, 128, kernel_size=(3, 3), stride=(1, 1), padding=(1, 1), bias=False)
            (bn): BatchNorm2d(128, eps=0.001, momentum=0.03, affine=True, track_running_stats=True)
            (act): ReLU(inplace=True)
          )
          (conv2): RepConv(
            (nonlinearity): ReLU(inplace=True)
            (rbr_dense): Sequential(
              (conv): Conv2d(128, 96, kernel_size=(3, 3), stride=(1, 1), padding=(1, 1), bias=False)
              (bn): BatchNorm2d(96, eps=0.001, momentum=0.03, affine=True, track_running_stats=True)
            )
            (rbr_1x1): Sequential(
              (conv): Conv2d(128, 96, kernel_size=(1, 1), stride=(1, 1), bias=False)
              (bn): BatchNorm2d(96, eps=0.001, momentum=0.03, affine=True, track_running_stats=True)
            )
          )
        )
        (1): BasicBlock_3x3_Reverse(
          (conv1): ConvBNAct(
            (conv): Conv2d(96, 128, kernel_size=(3, 3), stride=(1, 1), padding=(1, 1), bias=False)
            (bn): BatchNorm2d(128, eps=0.001, momentum=0.03, affine=True, track_running_stats=True)
            (act): ReLU(inplace=True)
          )
          (conv2): RepConv(
            (nonlinearity): ReLU(inplace=True)
            (rbr_dense): Sequential(
              (conv): Conv2d(128, 96, kernel_size=(3, 3), stride=(1, 1), padding=(1, 1), bias=False)
              (bn): BatchNorm2d(96, eps=0.001, momentum=0.03, affine=True, track_running_stats=True)
            )
            (rbr_1x1): Sequential(
              (conv): Conv2d(128, 96, kernel_size=(1, 1), stride=(1, 1), bias=False)
              (bn): BatchNorm2d(96, eps=0.001, momentum=0.03, affine=True, track_running_stats=True)
            )
          )
        )
        (2): BasicBlock_3x3_Reverse(
          (conv1): ConvBNAct(
            (conv): Conv2d(96, 128, kernel_size=(3, 3), stride=(1, 1), padding=(1, 1), bias=False)
            (bn): BatchNorm2d(128, eps=0.001, momentum=0.03, affine=True, track_running_stats=True)
            (act): ReLU(inplace=True)
          )
          (conv2): RepConv(
            (nonlinearity): ReLU(inplace=True)
            (rbr_dense): Sequential(
              (conv): Conv2d(128, 96, kernel_size=(3, 3), stride=(1, 1), padding=(1, 1), bias=False)
              (bn): BatchNorm2d(96, eps=0.001, momentum=0.03, affine=True, track_running_stats=True)
            )
            (rbr_1x1): Sequential(
              (conv): Conv2d(128, 96, kernel_size=(1, 1), stride=(1, 1), bias=False)
              (bn): BatchNorm2d(96, eps=0.001, momentum=0.03, affine=True, track_running_stats=True)
            )
          )
        )
      )
      (conv3): ConvBNAct(
        (conv): Conv2d(512, 256, kernel_size=(1, 1), stride=(1, 1), bias=False)
        (bn): BatchNorm2d(256, eps=0.001, momentum=0.03, affine=True, track_running_stats=True)
        (act): ReLU(inplace=True)
      )
    )
    (bu_conv46): ConvBNAct(
      (conv): Conv2d(256, 256, kernel_size=(3, 3), stride=(2, 2), padding=(1, 1), bias=False)
      (bn): BatchNorm2d(256, eps=0.001, momentum=0.03, affine=True, track_running_stats=True)
      (act): ReLU(inplace=True)
    )
    (bu_conv76): ConvBNAct(
      (conv): Conv2d(256, 256, kernel_size=(3, 3), stride=(2, 2), padding=(1, 1), bias=False)
      (bn): BatchNorm2d(256, eps=0.001, momentum=0.03, affine=True, track_running_stats=True)
      (act): ReLU(inplace=True)
    )
    (merge_6): CSPStage(
      (conv1): ConvBNAct(
        (conv): Conv2d(1024, 256, kernel_size=(1, 1), stride=(1, 1), bias=False)
        (bn): BatchNorm2d(256, eps=0.001, momentum=0.03, affine=True, track_running_stats=True)
        (act): ReLU(inplace=True)
      )
      (conv2): ConvBNAct(
        (conv): Conv2d(1024, 256, kernel_size=(1, 1), stride=(1, 1), bias=False)
        (bn): BatchNorm2d(256, eps=0.001, momentum=0.03, affine=True, track_running_stats=True)
        (act): ReLU(inplace=True)
      )
      (convs): Sequential(
        (0): BasicBlock_3x3_Reverse(
          (conv1): ConvBNAct(
            (conv): Conv2d(192, 256, kernel_size=(3, 3), stride=(1, 1), padding=(1, 1), bias=False)
            (bn): BatchNorm2d(256, eps=0.001, momentum=0.03, affine=True, track_running_stats=True)
            (act): ReLU(inplace=True)
          )
          (conv2): RepConv(
            (nonlinearity): ReLU(inplace=True)
            (rbr_dense): Sequential(
              (conv): Conv2d(256, 192, kernel_size=(3, 3), stride=(1, 1), padding=(1, 1), bias=False)
              (bn): BatchNorm2d(192, eps=0.001, momentum=0.03, affine=True, track_running_stats=True)
            )
            (rbr_1x1): Sequential(
              (conv): Conv2d(256, 192, kernel_size=(1, 1), stride=(1, 1), bias=False)
              (bn): BatchNorm2d(192, eps=0.001, momentum=0.03, affine=True, track_running_stats=True)
            )
          )
        )
        (1): BasicBlock_3x3_Reverse(
          (conv1): ConvBNAct(
            (conv): Conv2d(192, 256, kernel_size=(3, 3), stride=(1, 1), padding=(1, 1), bias=False)
            (bn): BatchNorm2d(256, eps=0.001, momentum=0.03, affine=True, track_running_stats=True)
            (act): ReLU(inplace=True)
          )
          (conv2): RepConv(
            (nonlinearity): ReLU(inplace=True)
            (rbr_dense): Sequential(
              (conv): Conv2d(256, 192, kernel_size=(3, 3), stride=(1, 1), padding=(1, 1), bias=False)
              (bn): BatchNorm2d(192, eps=0.001, momentum=0.03, affine=True, track_running_stats=True)
            )
            (rbr_1x1): Sequential(
              (conv): Conv2d(256, 192, kernel_size=(1, 1), stride=(1, 1), bias=False)
              (bn): BatchNorm2d(192, eps=0.001, momentum=0.03, affine=True, track_running_stats=True)
            )
          )
        )
        (2): BasicBlock_3x3_Reverse(
          (conv1): ConvBNAct(
            (conv): Conv2d(192, 256, kernel_size=(3, 3), stride=(1, 1), padding=(1, 1), bias=False)
            (bn): BatchNorm2d(256, eps=0.001, momentum=0.03, affine=True, track_running_stats=True)
            (act): ReLU(inplace=True)
          )
          (conv2): RepConv(
            (nonlinearity): ReLU(inplace=True)
            (rbr_dense): Sequential(
              (conv): Conv2d(256, 192, kernel_size=(3, 3), stride=(1, 1), padding=(1, 1), bias=False)
              (bn): BatchNorm2d(192, eps=0.001, momentum=0.03, affine=True, track_running_stats=True)
            )
            (rbr_1x1): Sequential(
              (conv): Conv2d(256, 192, kernel_size=(1, 1), stride=(1, 1), bias=False)
              (bn): BatchNorm2d(192, eps=0.001, momentum=0.03, affine=True, track_running_stats=True)
            )
          )
        )
      )
      (conv3): ConvBNAct(
        (conv): Conv2d(1024, 512, kernel_size=(1, 1), stride=(1, 1), bias=False)
        (bn): BatchNorm2d(512, eps=0.001, momentum=0.03, affine=True, track_running_stats=True)
        (act): ReLU(inplace=True)
      )
    )
  )
  (head): ZeroHead(
    (integral): Integral()
    (loss_dfl): DistributionFocalLoss()
    (loss_cls): QualityFocalLoss()
    (loss_bbox): GIoULoss()
    (cls_convs): ModuleList(
      (0-2): 3 x ModuleList()
    )
    (reg_convs): ModuleList(
      (0-2): 3 x ModuleList()
    )
    (gfl_cls): ModuleList(
      (0): Conv2d(128, 15, kernel_size=(3, 3), stride=(1, 1), padding=(1, 1))
      (1): Conv2d(256, 15, kernel_size=(3, 3), stride=(1, 1), padding=(1, 1))
      (2): Conv2d(512, 15, kernel_size=(3, 3), stride=(1, 1), padding=(1, 1))
    )
    (gfl_reg): ModuleList(
      (0): Conv2d(128, 68, kernel_size=(3, 3), stride=(1, 1), padding=(1, 1))
      (1): Conv2d(256, 68, kernel_size=(3, 3), stride=(1, 1), padding=(1, 1))
      (2): Conv2d(512, 68, kernel_size=(3, 3), stride=(1, 1), padding=(1, 1))
    )
    (scales): ModuleList(
      (0-2): 3 x Scale()
    )
  )
)/mnt/disk2/mjlee/Online_CLOD/methods/er_selection.py:70: FutureWarning: `torch.cuda.amp.autocast(args...)` is deprecated. Please use `torch.amp.autocast('cuda', args...)` instead.
  with torch.cuda.amp.autocast(enabled=False):

loading annotations into memory...
Done (t=0.47s)
…
